checkpointep100.pt (torch_old, 56221 bytes, 13 tensors)

value.fc1.weight f4 [64, 37]
0	0xbd29abc9	-0.041423593
1	0x3b89ff4b	0.0042113415
2	0xbd548caa	-0.05189196
3	0xbe1c2318	-0.15247762
4	0xbd24f378	-0.040271252
5	0x3dfdff93	0.124022625
6	0xbd14c71d	-0.0363227
7	0x3dc638c3	0.09678795
8	0xbdac1db3	-0.08404102
9	0x3cf4cba7	0.029882265
10	0xbe19d688	-0.15023243
11	0x3d353a7f	0.04424524
12	0xbe14d703	-0.14535145
13	0xbe5f03f1	-0.21778847
14	0xbde4cbee	-0.11171709
15	0xbd18c41d	-0.037296403
16	0x3dbbd8d0	0.09172213
17	0x3e0c715d	0.1371512
18	0xbe5ce84d	-0.2157299
19	0xbdbf68bc	-0.09346148
20	0x3d9fbbe2	0.07799508
21	0x3da37b80	0.0798254
22	0xbd43937e	-0.04774808
23	0x3dba40cd	0.09094391
24	0xbe1181e1	-0.14209701
25	0x3cd39196	0.025826257
26	0x3dda88dd	0.10670636
27	0xbe041bc8	-0.12901223
28	0xbe1344b0	-0.14381671
29	0xbd425bba	-0.04745076
30	0x3b168cc3	0.0022972084
31	0x3cf9ea7d	0.03050732
32	0xbdaf13d1	-0.085487016
33	0xbe0a6472	-0.1351488
34	0xbe5f4efd	-0.21807475
35	0xbe21ba7f	-0.15793799
36	0xbd6d8a2f	-0.05799311
37	0x3d3f0c5f	0.046642657
38	0x3cb061f4	0.021531083
39	0x3e276d15	0.16350205
40	0xbd899c0a	-0.06719215
41	0xbe6e402a	-0.23266664
42	0x3d06df42	0.03292776
43	0xbde2d677	-0.11076062
44	0xbe24f8e6	-0.16110572
45	0xbe74412d	-0.23852988
46	0x3bb9d630	0.005671285
47	0x3e32ad0f	0.17448829
48	0xbdfde656	-0.12397449
49	0xbda1b227	-0.07895308
50	0x3c9a3440	0.018823743
51	0x3dc3bbc3	0.09557297
52	0x3d2bba99	0.041926
53	0xbd83b109	-0.06430251
54	0x3ddac40d	0.10681925
55	0xbd2f0c14	-0.042736128
56	0xbe4c9c96	-0.19981608
57	0xbdb62f29	-0.08895714
58	0xbdf8e841	-0.12153674
59	0xbdc8a9f7	-0.09798043
60	0xbe01c6bd	-0.12673469
61	0xbd294b0e	-0.041331343
62	0xbe23a1df	-0.15979718
63	0x3df250db	0.11831828
64	0x3d1e8389	0.03869966
65	0xbd6448ee	-0.055733614
66	0xbddaae9a	-0.10677834
67	0xbd88540a	-0.06656654
68	0x3e223e45	0.15844066
69	0x3e2f85fe	0.17140958
70	0xbdfa0af8	-0.122091234
71	0xbe4ba0de	-0.19885585
72	0xbcec773e	-0.028865453
73	0x3d7da70c	0.061926886
74	0x3e42d1f0	0.19025397
75	0x3e65f338	0.22456062
76	0x3b2827fb	0.0025658596
77	0xbe1c2d48	-0.15251648
78	0x3ca9ee96	0.02074365
79	0xbe1d00f1	-0.1533239
80	0xbe1c75e9	-0.15279354
81	0x3e4e960f	0.2017443
82	0x3e178a5e	0.14798877
83	0xbecd72e9	-0.40126732
84	0x3cef21cf	0.029190926
85	0xbe38176d	-0.17977686
86	0x3d007438	0.031360835
87	0xbc287fba	-0.010284359
88	0x3dace8bb	0.08442827
89	0xbdd69cd0	-0.10479128
90	0x3dd3cd29	0.103418656
91	0x3e01eab8	0.12687194
92	0x3e42a308	0.19007504
93	0x3d67d856	0.0566028
94	0xbe2fcefd	-0.17168804
95	0xbdb765f7	-0.08954995
96	0x3e06da17	0.13169132
97	0xbd164cee	-0.03669446
98	0xbe535172	-0.20636538
99	0xbda153ae	-0.07877289
100	0x3e48ac37	0.19596945
101	0x3dfa58c7	0.12223964
102	0xbe76d6b7	-0.24105345
103	0xbd60d05e	-0.054886214
104	0xbe669c0e	-0.22520468
105	0xbd11122c	-0.03541772
106	0xbdf8c555	-0.12147013
107	0xbc94c5f9	-0.018160807
108	0xbb8533b3	-0.004065001
109	0xbdb2aadc	-0.08723995
110	0xbd92ae54	-0.07162157
111	0x3d9349dd	0.07191823
112	0xbe023af8	-0.12717807
113	0xbe046e96	-0.1293281
114	0x3e14e583	0.14540677
115	0xbe6eabd0	-0.23307729
116	0xbceaff67	-0.028686238
117	0xbe5181c6	-0.20459661
118	0xbe7daf83	-0.24773984
119	0x3dc597f9	0.09648127
120	0xbdab38f9	-0.08360476
121	0xbc83b311	-0.016076596
122	0xbeacf6ad	-0.3378195
123	0x3e1c917c	0.15289873
124	0xbe8f8c82	-0.28036886
125	0xbe1b64ce	-0.15175173
126	0x3d919f68	0.071104825
127	0xbe4ed317	-0.20197712
128	0xbe9f1ca8	-0.3107655
129	0xbed115b0	-0.4083686
130	0xbe324026	-0.17407283
131	0x3e0cecce	0.13762209
132	0xbeacd101	-0.33753207
133	0xbe84b75c	-0.25921142
134	0xbaa72758	-0.0012752814
135	0x3e25f9d7	0.16208588
136	0x3c24da2a	0.01006178
137	0xbccd94b9	-0.02509533
138	0xbcb35aa4	-0.021893807
139	0x3e0e5975	0.13901313
140	0x3e218496	0.15773234
141	0x3dd1ba38	0.102405965
142	0xbdf22f48	-0.118254244
143	0x3d3d8597	0.04626998
144	0xbeb9292a	-0.36164218
145	0xbca012e9	-0.019540267
146	0x3db5e538	0.08881611
147	0x3ba909a8	0.005158622
148	0xbe460ac4	-0.19340044
149	0xbe4ffe80	-0.20311928
150	0x3c886cdf	0.016653476
151	0xbdd6fa4e	-0.104969606
152	0x3d709b7b	0.058742028
153	0x3df2bcda	0.11852427
154	0x3d9c5920	0.07634187
155	0xbe8549b3	-0.2603279
156	0x3e85259f	0.26005265
157	0xbe23df79	-0.16003217
158	0x3d5575c2	0.052114256
159	0xbc5a9e61	-0.013343425
160	0xbd8bcc1d	-0.06826041
161	0xbdbe1950	-0.09282172
162	0xbe4befef	-0.19915746
163	0xbe5a3553	-0.21309404
164	0x3d148806	0.036262535
165	0xbc9b62e5	-0.018968055
166	0x3d5ff5a1	0.05467761
167	0x3e13111e	0.14361998
168	0xbe4895f2	-0.1958845
169	0x3df2c485	0.118538894
170	0x3dc8d1f5	0.09805671
171	0x3d8314fe	0.06400488
172	0x3e95c8f9	0.29254892
173	0x3de75c7d	0.112969376
174	0xbe3543f8	-0.1770171
175	0x3d77e54a	0.0605214
176	0x3d0cb603	0.034353267
177	0xbadff156	-0.0017085474
178	0x3e099981	0.13437463
179	0xbd52795e	-0.051385276
180	0x3a91558e	0.0011088119
181	0xbd62fbf4	-0.055416062
182	0x3e077aaf	0.13230394
183	0xbd5bd975	-0.05367418
184	0x3c52a6c1	0.01285714
185	0x3dc78f56	0.09744136
186	0xbdaf613d	-0.085634686
187	0xbd0fbb14	-0.03509052
188	0xbdc889b0	-0.09791887
189	0x3e291d56	0.16515097
190	0x3e1ef7fc	0.15524286
191	0x3de31ad7	0.11089104
192	0xbe2158ac	-0.15756482
193	0x3d91f907	0.07127576
194	0xbe56fa39	-0.2099389
195	0xbe011831	-0.12606885
196	0xbdf9099d	-0.12160037
197	0x3e1277ef	0.14303564
198	0xbdb8677d	-0.09004114
199	0xbd489312	-0.048968382
200	0x3d4b44e0	0.04962623
201	0x3dc5e898	0.09663504
202	0xbe243a75	-0.16037925
203	0xbdc4ab52	-0.09602989
204	0xbe11bc5f	-0.14232014
205	0x3d083d81	0.03326178
206	0x3dce94bc	0.100869626
207	0x3e33a4fa	0.17543402
208	0xbd413d0f	-0.04717737
209	0x3e43a170	0.19104552
210	0x3dcc848d	0.099862196
211	0xbd837785	-0.06419281
212	0xbce20762	-0.027591411
213	0xbdcd8da5	-0.10036782
214	0xbc8d80e8	-0.017273381
215	0x3defaccf	0.117028825
216	0xbe0b5ebf	-0.13610362
217	0xbe4d3e3f	-0.20043276
218	0x3d996f12	0.07491888
219	0xbe357bed	-0.17723055
220	0x3cb76280	0.022385836
221	0x3d8db095	0.06918446
222	0x3e1cfeb1	0.15331532
223	0xbdb4b958	-0.08824414
224	0x3d1e6f7b	0.038680535
225	0x3cfdfa73	0.031003213
226	0xbe22f058	-0.15911996
227	0x3e161b7a	0.14658919
228	0xbdcaf940	-0.09910822
229	0xbddda889	-0.10823161
230	0xbd061984	-0.032739177
231	0x3e407552	0.18794754
232	0x3d976848	0.07392937
233	0x3dfef6eb	0.124494396
234	0x3dcfca38	0.10145992
235	0xbd531a36	-0.05153867
236	0x3e45b57e	0.19307515
237	0xbe5243f8	-0.2053374
238	0x3c1f86cd	0.009736729
239	0x3e354a9a	0.1770424
240	0x3d3869e7	0.04502287
241	0x3d092c03	0.03348924
242	0xbdf34ab1	-0.11879481
243	0x3da20cd9	0.07912607
244	0x3ddd4cc3	0.10805657
245	0x3d218a04	0.039438263
246	0x3dcb745c	0.09934303
247	0xbd23e132	-0.040009685
248	0x3d4a421a	0.049379446
249	0xbd5b746a	-0.053577818
250	0xbe2b7b96	-0.16746363
251	0x3d3084dc	0.043095455
252	0x3ebc5f07	0.3679125
253	0xbe6b956a	-0.23006216
254	0xbe075a12	-0.13217953
255	0xbdd68218	-0.10474032

value.fc1.bias f4 [64]
0	0x3dfcf257	0.1235091
1	0xbd4d646b	-0.050144594
2	0xbe023fa7	-0.12719594
3	0xbdc0a1db	-0.094058715
4	0x3e2a64cd	0.16640015
5	0xbcedb392	-0.02901629
6	0xbd8ebb90	-0.069693685
7	0x3d3f9466	0.046772383
8	0x3d395375	0.045245606
9	0xbe35089a	-0.17679062
10	0x3d8e27ae	0.06941162
11	0x3d9a92ae	0.07547508
12	0x3e17d233	0.14826278
13	0x3d8af1cb	0.067843996
14	0xbda93020	-0.08261132
15	0xbdd30070	-0.10302818
16	0x3db652d7	0.08902519
17	0xbd6fd8b1	-0.058556262
18	0xba96f890	-0.0011518169
19	0xbe6203e0	-0.2207179
20	0xbdcc6224	-0.09979656
21	0x3d44d806	0.04805758
22	0xbd016519	-0.031590555
23	0xbdfe0b85	-0.12404541
24	0xbe32b9b9	-0.1745366
25	0x3e3c572a	0.18392625
26	0xbd2ff708	-0.042960197
27	0xbe17a6b3	-0.14809684
28	0x3e317736	0.17330632
29	0x3e09c395	0.13453515
30	0xbdbf6889	-0.093461104
31	0xbe009a3a	-0.12558833
32	0x3e5e6fe4	0.2172237
33	0xbcdc6091	-0.026901515
34	0xbdecdbf2	-0.11565389
35	0x3d46c36f	0.048526224
36	0xbd89c797	-0.06727522
37	0xbd21d77a	-0.039512135
38	0xbd1d3b31	-0.038386527
39	0xbe2acb2c	-0.16679066
40	0xbd8f05b6	-0.06983511
41	0xbc3ab9a6	-0.011396801
42	0xbdb43557	-0.08799236
43	0x3e3f4b10	0.18680978
44	0x3ca27115	0.019829312
45	0xbd977bf3	-0.07396688
46	0x3dcda222	0.1004069
47	0xbe23e753	-0.16006212
48	0xbe1cd764	-0.1531654
49	0x3d245892	0.04012353
50	0xbe16c2dd	-0.14722772
51	0x3d6036e1	0.054739837
52	0x3a84543c	0.0010095905
53	0xbd88bbb3	-0.06676426
54	0xbe392b5b	-0.18082945
55	0x39ffc2c4	0.00048782502
56	0x3dac07e4	0.083999425
57	0xbda55e91	-0.08074678
58	0xbe38d623	-0.18050437
59	0xbdb132dd	-0.086522795
60	0x3ab30d48	0.0013660574
61	0x3c02fc2d	0.007994694
62	0x3d2b8809	0.04187778
63	0x3b728bd2	0.003700961

value.fc2.weight f4 [64, 64]
0	0xbdb0433d	-0.08606575
1	0x3d0086bd	0.031378496
2	0x3df597b1	0.119918235
3	0x3e71aba7	0.23600636
4	0x3dd94f46	0.10610823
5	0xbdf4acbe	-0.119470105
6	0xbdd160c9	-0.102235384
7	0x3da594e7	0.080850415
8	0x3d1de52c	0.038548633
9	0xbd1f781e	-0.038932912
10	0x3980db00	0.0002457723
11	0xbd99df98	-0.0751335
12	0xbd9cd8f6	-0.076585695
13	0x3d7e51ba	0.06208966
14	0x3d212c4a	0.039348878
15	0x3db366a1	0.08759809
16	0xbd70398e	-0.05864864
17	0xbd787435	-0.0606577
18	0x3df1bf81	0.118041046
19	0x3cc50310	0.024049312
20	0xbd6d4ea5	-0.05793633
21	0xbd8397e0	-0.06425452
22	0x3e2cc50b	0.16872041
23	0xbe2835d8	-0.1642679
24	0xbe1ba691	-0.15200259
25	0x3ce38b69	0.027776437
26	0x3e1b2839	0.15152062
27	0xbd2effda	-0.042724468
28	0x3d8799d8	0.0662114
29	0xbd0d6503	-0.03452016
30	0x3d651f69	0.05593816
31	0xbdbd43b2	-0.092414275
32	0x3dd28747	0.10279708
33	0x3a703052	0.0009162474
34	0xbdcbf52f	-0.099588744
35	0x3dc18c12	0.094505444
36	0xbdfcc0fe	-0.12341498
37	0x3d198197	0.037477102
38	0x3d612387	0.054965522
39	0xbd95c9db	-0.073138915
40	0xbe14fb4a	-0.14548984
41	0xbdcab963	-0.09898641
42	0xbb467b92	-0.0030286056
43	0xbd6ebca1	-0.05828536
44	0x3ddd3f6f	0.108031146
45	0xbdd298eb	-0.10283073
46	0xbe279e2b	-0.1636893
47	0x3dadd4b3	0.08487835
48	0xbd93e368	-0.07221109
49	0xbbd8c0a8	-0.0066147633
50	0xbd4bf11c	-0.049790487
51	0xbe1054fc	-0.14094919
52	0xbe304d9e	-0.17217109
53	0xbd2425b2	-0.04007501
54	0xbd0fcbd3	-0.03510649
55	0xbdcb07e4	-0.099136144
56	0xbdc8edff	-0.09811019
57	0xbdcadcc5	-0.0990539
58	0xbda8cf39	-0.082426496
59	0x3e058e35	0.13042529
60	0x3dc738f0	0.09727657
61	0x3ddaa0f6	0.10675232
62	0xbc1e1963	-0.009649607
63	0x3deb0e3a	0.11477323
64	0xbd56b699	-0.052420232
65	0x3de0694a	0.10957582
66	0xbd7c6f8c	-0.061629817
67	0x3e6e86da	0.2329363
68	0x3d4b7e49	0.04968098
69	0x3d9fa680	0.07795429
70	0xbd9a59dc	-0.075366706
71	0x3ddcf05e	0.10788034
72	0xbd6f8b5d	-0.058482517
73	0xbb9777ee	-0.004622451
74	0x3d998ee3	0.074979566
75	0x3dcac3fc	0.09900662
76	0x3be97002	0.007123948
77	0x3d6a7fee	0.05725091
78	0xbd07108d	-0.03297477
79	0xbb95dba1	-0.004573301
80	0xbbb84136	-0.005623008
81	0x3d89eaee	0.067342624
82	0xbdffde8e	-0.12493621
83	0xbd061037	-0.032730307
84	0x3c3d5d5e	0.011557905
85	0xbe828cb3	-0.2549797
86	0xbdb292c9	-0.08719403
87	0xbde06e9d	-0.10958598
88	0xbda3a5a3	-0.07990577
89	0x3dc08dc9	0.09402043
90	0x3d2e6fab	0.042586964
91	0xbdc5c065	-0.09655837
92	0x3ce73538	0.028223619
93	0xbe4dbcda	-0.20091572
94	0xbbbfb20d	-0.0058500827
95	0xbdd43b5c	-0.103628844
96	0x3d377572	0.04478974
97	0xbc0761e6	-0.008263087
98	0x3c61d1c6	0.013782924
99	0xbe017218	-0.1264118
100	0x3cb91d1a	0.022596885
101	0xbc06d4a5	-0.008229409
102	0xbd369d7e	-0.04458379
103	0xbe02ca1e	-0.12772414
104	0xbd762ede	-0.06010329
105	0x3c84a063	0.01618976
106	0x3bf036d3	0.0073307543
107	0xbd1eb98b	-0.038751166
108	0xbd8c1d4e	-0.06841527
109	0xbdb30351	-0.08740867
110	0xbda9092e	-0.08253704
111	0xbdfdee30	-0.12398946
112	0xbdc7f441	-0.097633846
113	0xbe50b278	-0.2038058
114	0xbd97d996	-0.07414548
115	0x3df054f6	0.11734955
116	0xbc8ce7b8	-0.017200336
117	0x3a6d1dce	0.0009045274
118	0x3cf15224	0.029458113
119	0x3db7fb50	0.08983481
120	0xbe38b80f	-0.18038963
121	0xbcbb273b	-0.022845855
122	0x3e47eab6	0.19523129
123	0x3d4ee2ba	0.050509192
124	0xbe03a342	-0.12855247
125	0xbdf9116e	-0.121615276
126	0xbce4f35d	-0.027948076
127	0x3d8b6c78	0.06807798
128	0xbdb73200	-0.089450836
129	0xbe318d2f	-0.17339014
130	0x3d43cb6d	0.047801424
131	0x3dbe43b7	0.09290259
132	0x3d258208	0.04040721
133	0x3d13f875	0.03612562
134	0xbe352427	-0.17689572
135	0xbc8d1d08	-0.017225757
136	0x3d3489b7	0.044076648
137	0xbd1014f3	-0.03517623
138	0x3da7f884	0.082016975
139	0x3c31b45f	0.0108462265
140	0x3da867ea	0.08222945
141	0x3e29cf63	0.16583018
142	0xba80bc55	-0.0009821752
143	0x3d23d7be	0.04000067
144	0xbe3b5b75	-0.18296607
145	0x3d784ae5	0.0606183
146	0x3ca89560	0.02057904
147	0xbe25c8d2	-0.16189888
148	0xbe4a2349	-0.19740023
149	0x3bda8329	0.0066684675
150	0x3cb20cd0	0.021734625
151	0xbc9e8d9e	-0.019354638
152	0xba1f59a7	-0.0006078728
153	0x3e1e393f	0.15451525
154	0x3de660a9	0.11248905
155	0x3d7e9248	0.062151223
156	0xbdb82608	-0.08991629
157	0x3d66c50c	0.056340262
158	0x3d98a8b2	0.07454051
159	0xbd324e99	-0.043531988
160	0xbde2efa0	-0.11080861
161	0xbcdaca9b	-0.026707938
162	0xbe667382	-0.22505
163	0x3d1f224f	0.03885108
164	0x3df91657	0.12162464
165	0x3dde1626	0.10844068
166	0x3dc44f41	0.09585429
167	0xbd80e196	-0.06293027
168	0x3e0ac4db	0.13551657
169	0xbe0ff3d2	-0.14057854
170	0x3c1aada9	0.009440818
171	0xbe564003	-0.20922856
172	0x3d14e79d	0.036353696
173	0x3d3d6d78	0.046246976
174	0x3ce8f443	0.028436786
175	0xbe77fbe5	-0.24217184
176	0xbdac7269	-0.084202595
177	0xbde09d09	-0.10967452
178	0xbcc59f98	-0.024123952
179	0x3d337472	0.043812223
180	0xbe1c9c3f	-0.15293978
181	0x3e3e6f70	0.18597198
182	0xbe8917d9	-0.26776007
183	0x3ba3ef86	0.0050029187
184	0xbdd80630	-0.10548055
185	0xbe13e5fc	-0.14443201
186	0x3deeaa95	0.1165363
187	0x3e30b797	0.17257534
188	0xbde6e2f7	-0.11273759
189	0xbd297b5b	-0.041377407
190	0x3d996d9b	0.07491609
191	0xbc98df5d	-0.018661195
192	0x3d55a6b7	0.052160945
193	0xbe6f7cd0	-0.23387456
194	0xb9ce99e3	-0.00039406036
195	0xbe41ab6e	-0.18913051
196	0xbc961b85	-0.01832367
197	0x3b18d8b7	0.0023322531
198	0xbd1f5658	-0.038900703
199	0xbcdf6919	-0.027271794
200	0xbdda4ffd	-0.10659788
201	0xbcd12c4e	-0.025533821
202	0xbd9d6d36	-0.07686846
203	0x3e0e7181	0.13910486
204	0xbdaac08c	-0.08337507
205	0xbd8adc30	-0.06780279
206	0xbd89b6d5	-0.067243256
207	0xbda29daa	-0.07940228
208	0xbc90e67f	-0.017688034
209	0xbc534aa2	-0.012896212
210	0xbdafd1bf	-0.08584928
211	0xbb47fb68	-0.003051484
212	0xbce63223	-0.028100079
213	0x3e2242fc	0.15845865
214	0x3d1494b1	0.036274616
215	0x3cfb5435	0.030679801
216	0x3e3da445	0.18519695
217	0x3ccde52f	0.025133697
218	0xbd0bba95	-0.034113485
219	0x3db1b48c	0.08677015
220	0x3e21fab2	0.15818289
221	0xbda4e1a3	-0.08050849
222	0xbd82b385	-0.06381897
223	0xbd8e8fde	-0.06961034
224	0xbdc2e3f7	-0.09516137
225	0xbe2b4f5f	-0.16729496
226	0x3d7ccab5	0.061716754
227	0x3d8d6f42	0.06905986
228	0xbe210fcc	-0.15728682
229	0x3e396411	0.18104579
230	0xbd6168d2	-0.055031605
231	0xbd1410b8	-0.036148757
232	0xbd2698af	-0.040672954
233	0x3d9ab6b4	0.07554379
234	0xbbf64c13	-0.007516393
235	0xbdcee12d	-0.101015426
236	0xbcf71a08	-0.03016378
237	0x3cfc8198	0.030823514
238	0xbd3353fa	-0.04378126
239	0xbbebdab4	-0.0071977023
240	0xbd926df1	-0.07149876
241	0xbd076f46	-0.033065103
242	0xbdbe2e29	-0.09286148
243	0x3bd302f0	0.006439559
244	0x3d8898c3	0.06669762
245	0xbd489957	-0.04897436
246	0x3d36997e	0.044579975
247	0x3e09b8a3	0.1344934
248	0xbe0546d1	-0.13015296
249	0xbdc2f0f9	-0.09518618
250	0xbd234de4	-0.039869204
251	0x3df90262	0.121586576
252	0xbe6ff836	-0.23434529
253	0xbdb29883	-0.087204956
254	0xbe552c1e	-0.2081761
255	0xbd6ae4a7	-0.057346966

value.fc2.bias f4 [64]
0	0xbc808594	-0.015688695
1	0xbdb11b6a	-0.08647807
2	0x3d1a71bb	0.037706118
3	0x3c868ffc	0.016426079
4	0x3e0cc0b0	0.1374538
5	0xbe081eef	-0.1329305
6	0xbdb10ed3	-0.086454056
7	0x3d8a9e29	0.06768448
8	0x3d828e0a	0.06374748
9	0x3c469011	0.012119309
10	0xbcfe0531	-0.031008335
11	0x3d8fa9a0	0.07014775
12	0x3d689273	0.05678029
13	0xbdac6037	-0.08416789
14	0xbd69b04c	-0.057052895
15	0x3b732fb2	0.0037107286
16	0x3bf1a89c	0.007374836
17	0xbb940ed3	-0.0045183687
18	0xbccc6337	-0.024949653
19	0x3d8e70e2	0.069551244
20	0x3dd5674f	0.10420095
21	0x3df3cd23	0.11904361
22	0xbc3edb2e	-0.011648936
23	0xbdbc44b8	-0.091927946
24	0xbdd524d6	-0.104074165
25	0xbd08dd47	-0.03341415
26	0x3ddcb1db	0.10776111
27	0xbd9133ba	-0.07089944
28	0xbd3559fc	-0.04427527
29	0x3ce31f3d	0.027724857
30	0x3d9fd05d	0.07803414
31	0xbda76ae6	-0.08174686
32	0x3c298ee1	0.010349006
33	0x3d9b9100	0.07596016
34	0x3c908cc3	0.017645245
35	0xbd1675dc	-0.036733493
36	0xbd87bb00	-0.06627464
37	0xbe0a8fd9	-0.13531436
38	0x3d7089c0	0.05872512
39	0xbd8b5ca0	-0.06804776
40	0xbe169dce	-0.14708635
41	0x3ddcca8a	0.10780819
42	0x3d729671	0.059225503
43	0xbb16d251	-0.0023013542
44	0x3cbd7b2f	0.023130028
45	0xbd34cf33	-0.044142913
46	0xbddda465	-0.108223714
47	0xbd8a6a3b	-0.06758543
48	0x3db79feb	0.08966049
49	0xbe23a83a	-0.15982142
50	0xbda36997	-0.07979124
51	0x3dd01b11	0.101614125
52	0xbd9a84db	-0.075448714
53	0xbda09805	-0.078414954
54	0x3d05689f	0.032570478
55	0xbe16575c	-0.14681762
56	0xbdff9e0c	-0.12481317
57	0xbda0cbb7	-0.078513555
58	0x3c234c55	0.009966929
59	0xbc816993	-0.015797412
60	0x3d97d94f	0.07414495
61	0x3df93717	0.12168711
62	0x3e181a2c	0.14853734
63	0xbe0d10de	-0.13775966

value.fc3.weight f4 [1, 64]
0	0xbe86a7e8	-0.26299977
1	0x3e27748d	0.16353054
2	0x3e193499	0.1496147
3	0xbe2e7d05	-0.17039879
4	0x3dd797a4	0.1052697
5	0xbe38820a	-0.18018356
6	0x3e0a7bd9	0.13523807
7	0xbe039615	-0.1285022
8	0x3d7a46bb	0.06110261
9	0xbca98526	-0.020693373
10	0xbe07a71d	-0.13247342
11	0x3e864f45	0.26232353
12	0xbe969e6f	-0.2941775
13	0x3e52bf39	0.20580758
14	0xbdb6bd06	-0.08922772
15	0xbda511ea	-0.080600575
16	0xbe1ae5da	-0.15126744
17	0x3dda8bf2	0.10671224
18	0xbe9e6eae	-0.30943817
19	0x3e0f1534	0.13972932
20	0x3d8966f1	0.06709088
21	0xbd9d4902	-0.07679941
22	0x3d6cc50e	0.057805113
23	0xbe8334f6	-0.25626343
24	0xbeb1d3c7	-0.34731886
25	0xbe4ef21b	-0.20209543
26	0xbe145a2e	-0.14487526
27	0xbe351c7a	-0.17686644
28	0x3dce0954	0.10060373
29	0xbe227b4a	-0.15867344
30	0xbe9edff3	-0.31030235
31	0x3d6c1f6f	0.057647165
32	0x3d7b95bd	0.0614221
33	0x3e067316	0.1312984
34	0x3d38f2d2	0.045153446
35	0xbe317aa8	-0.17331946
36	0x3d997866	0.07493667
37	0xbde51dfe	-0.11187361
38	0x3e8ee268	0.2790711
39	0x3e0fee11	0.14055659
40	0x3d6736cc	0.056448743
41	0x3b8c5f55	0.0042838254
42	0x3d44a089	0.04800466
43	0x3d0210cd	0.031754304
44	0x3dc04022	0.09387232
45	0x3da5bd3e	0.08092736
46	0x3e241cb2	0.16026571
47	0x3e8659d0	0.26240396
48	0xbde861f0	-0.11346805
49	0x3e84dcd8	0.2594974
50	0xbe61eaae	-0.2206218
51	0x3d44d3e7	0.04805365
52	0x3e94ef0d	0.2908863
53	0xbe12cf59	-0.1433691
54	0x3d7d6689	0.061865363
55	0x3d9c05fe	0.076183304
56	0xbd81d41f	-0.06339287
57	0xbe437e5b	-0.1909117
58	0x3e84c4ac	0.259313
59	0x3dff822b	0.124759994
60	0xbe1f105c	-0.15533584
61	0x3dd6de1b	0.10491582
62	0x3d13f5fb	0.036123257
63	0x3e6c1c38	0.2305764

advantage.fc1.weight f4 [64, 37]
0	0xbc96f0fe	-0.01842546
1	0x3dec171b	0.115278445
2	0xbd243f07	-0.04009917
3	0xbde22849	-0.1104284
4	0x3d173fb3	0.036925983
5	0x3d88bcf5	0.06676666
6	0xbc404c57	-0.011736951
7	0x3e6246db	0.22097342
8	0xbd5f0962	-0.054452308
9	0x3e264ce1	0.16240264
10	0x3cf3c7c0	0.029758334
11	0x3b5a3199	0.0033293723
12	0xbe38df4e	-0.18053934
13	0xbdf35119	-0.118807025
14	0xbe05add9	-0.13054599
15	0x3ccb617c	0.024826758
16	0x3d16baab	0.036799114
17	0x3e16cfd2	0.14727715
18	0x3d26159d	0.040547956
19	0xbd4ae93e	-0.049538843
20	0x3d461ca8	0.048367172
21	0x3e3c640d	0.18397541
22	0xbb6e0d44	-0.0036323825
23	0x3e0ed778	0.13949382
24	0xbca5263c	-0.020159833
25	0x3db52e67	0.08846741
26	0x3e08fe97	0.13378368
27	0xbddbbd24	-0.10729435
28	0xbd9a2536	-0.07526629
29	0x3cef90b0	0.029243797
30	0xbcc69917	-0.02424292
31	0x3e28fb4a	0.16502109
32	0xbdde0f81	-0.10842801
33	0xbd3ea987	-0.046548393
34	0xbc00c93e	-0.00786048
35	0xbd6a2996	-0.057168566
36	0xbd1a318a	-0.0376449
37	0x3dd0be41	0.10192538
38	0x3dd6d106	0.10489087
39	0x3da97bcb	0.08275565
40	0x3d53a08d	0.051666785
41	0xbde3088b	-0.11085614
42	0x3dd3721c	0.10324499
43	0xbe619217	-0.22028385
44	0xbe730f6d	-0.23736353
45	0x3e0fa538	0.1402787
46	0x3d925187	0.07144456
47	0x3dc947ef	0.09828173
48	0xbd169777	-0.036765542
49	0x3d557e40	0.052122355
50	0xbd572932	-0.05252952
51	0x3df9ec11	0.12203229
52	0x3df6e35f	0.12055086
53	0xbc22a12f	-0.0099261245
54	0x3d939775	0.072066225
55	0xbd3e5333	-0.046466064
56	0x3e051654	0.12996799
57	0xbe1110cf	-0.14166568
58	0xbdda900b	-0.10672005
59	0xbd94f922	-0.07274081
60	0x3db7e733	0.089796446
61	0x3d986af1	0.074422725
62	0x3b4baced	0.0031078414
63	0xbbccd684	-0.006251158
64	0x3dbb6cf3	0.0915164
65	0xbd870fe3	-0.06594827
66	0x3d77da04	0.06051065
67	0x3d2c0402	0.04199601
68	0x3dbde235	0.09271661
69	0x3e421e84	0.18956953
70	0xbe26fab4	-0.16306573
71	0xbd7a6730	-0.061133564
72	0x3d8fe794	0.07026592
73	0x3c4bd448	0.0124407485
74	0x3e273002	0.16326907
75	0x3d569dbd	0.052396525
76	0x3de5e111	0.11224569
77	0xbe8286be	-0.25493425
78	0xb9639239	-0.00021702879
79	0x3cb513f2	0.022104237
80	0xbe91651a	-0.28397447
81	0x3e0a2809	0.13491835
82	0x3e53456d	0.20631953
83	0xbe4a3052	-0.19744995
84	0x39437346	0.00018639592
85	0xbd87d694	-0.066327244
86	0xbcc5d589	-0.024149673
87	0xbc2952c4	-0.010334674
88	0x3d9f503e	0.07778977
89	0xbe3346f1	-0.17507531
90	0x3e0abe32	0.13549116
91	0x3df620a2	0.12017943
92	0xbdafc3b3	-0.085822485
93	0x3d0bd97b	0.034142952
94	0xbe50a42a	-0.20375124
95	0xbe7e7cae	-0.24852249
96	0x3de0decc	0.10979995
97	0x3db0eca6	0.08638887
98	0xbe39970e	-0.18124029
99	0xbd8b7950	-0.06810248
100	0x3e4d0840	0.20022678
101	0x3d817c26	0.063225076
102	0xbdcc8774	-0.09986773
103	0xbd9e078f	-0.077162854
104	0xbdb7f46d	-0.089821674
105	0x3d051381	0.032489303
106	0xbe38f2d1	-0.18061377
107	0xbe502052	-0.20324829
108	0xbd739924	-0.05947222
109	0x3b9d7672	0.0048053795
110	0xbd2dfd57	-0.04247793
111	0x3da994ae	0.082803115
112	0xbd67e168	-0.05661145
113	0x3e3f2edb	0.18670218
114	0x3d4fb277	0.050707307
115	0xbdcc78ab	-0.09983953
116	0x3d87c056	0.06628482
117	0x3d47788c	0.048698947
118	0xbdc667ce	-0.09687768
119	0xbe85c34a	-0.26125556
120	0xbe146f64	-0.14495617
121	0x3d35d74b	0.044394772
122	0xbe2e58a5	-0.17026003
123	0x3e21d8fb	0.15805428
124	0xbe516a2f	-0.20450662
125	0xbe643e4f	-0.22289394
126	0xbb0367ce	-0.0020050886
127	0xbdca44b6	-0.09876387
128	0xbd90f56b	-0.0707806
129	0xbdfc7824	-0.123276025
130	0xbe21c36f	-0.15797208
131	0x3e1ffda9	0.15624107
132	0xbe39b34c	-0.18134803
133	0x3d4c962c	0.049947903
134	0xbe02c5f1	-0.12770821
135	0xbea0e45a	-0.31424218
136	0x3dc5e2e1	0.09662414
137	0x3d0f1d3d	0.034939993
138	0xbd211bbb	-0.039333086
139	0xbda4945a	-0.08036108
140	0xbcdcda0d	-0.026959443
141	0x3e5acbff	0.21366881
142	0x3d30ef3e	0.04319691
143	0xbd6fadea	-0.058515467
144	0xbe4c45bc	-0.19948477
145	0xbf2e37aa	-0.68053687
146	0x3cdc6cb9	0.026907312
147	0x3bfb0bf5	0.0076613375
148	0xbdaf3259	-0.08554525
149	0xbe4a84f3	-0.19777279
150	0xbd818cc3	-0.06325676
151	0xbe13fe14	-0.14452392
152	0xbdee8478	-0.1164636
153	0x3e2d5539	0.16927041
154	0x3e2c7d9b	0.1684479
155	0xbea7b20b	-0.32753024
156	0x3d18c80d	0.03730016
157	0xbeaff61d	-0.34367457
158	0xbc544a6f	-0.0129571995
159	0xbdda5c13	-0.10662093
160	0x3afc40c7	0.0019245379
161	0xbb62c027	-0.0034599395
162	0xbe8dd291	-0.27699712
163	0xbdcce1fd	-0.10004041
164	0xbd852ad1	-0.06502307
165	0x3b9fa971	0.004872494
166	0xbd859a60	-0.06523585
167	0xbccc851e	-0.024965819
168	0xbde8721d	-0.113498904
169	0x3d569af3	0.052393865
170	0x3e4d10cc	0.20025939
171	0xbe842a33	-0.25813445
172	0x3d6beba4	0.05759777
173	0x3e23c1ab	0.15991847
174	0xbd53c2c3	-0.05169941
175	0xbd1d3955	-0.038384754
176	0xbe1a1cbc	-0.15050024
177	0xbe5ea78d	-0.21743603
178	0x3e87163b	0.26384148
179	0xbe38323a	-0.1798791
180	0xbdbcb413	-0.09214034
181	0xbe021e4e	-0.12706873
182	0xbe027b8c	-0.12742442
183	0x3dcab1f4	0.09897223
184	0x3d5b1659	0.05348811
185	0xbd5ba132	-0.053620525
186	0xbd35473f	-0.0442574
187	0xbd0b070d	-0.03394227
188	0xbe9faf1d	-0.31188288
189	0x3d9a617a	0.075381234
190	0x3cbf67d7	0.023364944
191	0xbda98127	-0.08276587
192	0xbce0f5b9	-0.02746092
193	0xbe037368	-0.12836993
194	0xbeb6c17f	-0.356945
195	0xbe65dc40	-0.224473
196	0xbcc483a3	-0.02398855
197	0x3d187c0b	0.03722767
198	0xbe87149e	-0.26382917
199	0x3c848a2d	0.016179169
200	0x3cd43eb8	0.025908813
201	0xbbe78d1a	-0.007066381
202	0xbdb98eb3	-0.09060421
203	0xbe98a1ae	-0.29810852
204	0xbe9929cb	-0.29914698
205	0x3d4c54ae	0.049885444
206	0xbe3d6589	-0.18495764
207	0x3e52a61f	0.20571183
208	0xbc4dad2f	-0.012553497
209	0xbe59c3d1	-0.21266104
210	0xbdde0268	-0.10840303
211	0xbe2aba3c	-0.16672605
212	0x3dba2007	0.0908814
213	0xbdded342	-0.10880138
214	0xbeedd320	-0.46450138
215	0xbe1dcc3c	-0.1540994
216	0xbe5e0b68	-0.21684039
217	0x3d4f495f	0.05060708
218	0xbd26ffaf	-0.040771183
219	0xbebf8e62	-0.37413317
220	0x3d3144b4	0.04327841
221	0x3dc6a5da	0.096996024
222	0x3e10feba	0.1415967
223	0xbded44ce	-0.11585389
224	0xbdb440f5	-0.08801452
225	0x3d40a79a	0.047034837
226	0xbe1bc481	-0.15211679
227	0xbe5548a3	-0.2082849
228	0x3da4fb95	0.08055798
229	0xbdb846f0	-0.08997905
230	0x3bd218e8	0.0064116605
231	0x3e0b01aa	0.13574854
232	0xbdaaadf0	-0.08333957
233	0x3d3c386b	0.045952242
234	0x3db6e54c	0.08930454
235	0xbb6db1de	-0.0036269347
236	0x3c8c1c97	0.017103476
237	0xbe79268a	-0.24331108
238	0xbe714a17	-0.2356342
239	0x3e087999	0.13327636
240	0x3e398e5e	0.18120715
241	0x3d413660	0.047170997
242	0xbe38e2c4	-0.18055254
243	0xbe149b56	-0.14512381
244	0x3e4cc456	0.19996771
245	0xbe44035d	-0.19141908
246	0x3c63743a	0.013882691
247	0xbdecfdfd	-0.11571882
248	0x3dd3d870	0.103440166
249	0xbdbbbddd	-0.09167073
250	0xbeb356fe	-0.35027307
251	0x3da96339	0.08270878
252	0x3e1de2c8	0.15418541
253	0xbe3b4ef2	-0.18291834
254	0xbcb383e7	-0.021913482
255	0xbd8aa58d	-0.067698576

advantage.fc1.bias f4 [64]
0	0x3e2f31af	0.17108797
1	0xbc9bef78	-0.019035086
2	0xbe1e164b	-0.15438192
3	0xbcd1aa0b	-0.025593778
4	0x3e46db14	0.19419509
5	0xbdb6bf10	-0.08923161
6	0xbda2e512	-0.07953848
7	0x3d83d305	0.06436733
8	0x3d4266b8	0.04746124
9	0xbe214873	-0.15750293
10	0x3e0640fc	0.13110727
11	0x3dae5866	0.085129544
12	0x3dba8a1c	0.091083735
13	0x3de06037	0.109558515
14	0xbd6c1a6a	-0.057642378
15	0xbd482997	-0.04886779
16	0x3d8890ca	0.06668241
17	0xbd9158d5	-0.070970215
18	0xbd3b946f	-0.045795854
19	0xbe2160ee	-0.15759632
20	0xbd8719d0	-0.0659672
21	0x3cf3e8f8	0.029774174
22	0x3c9b22bd	0.018937463
23	0xbda0d8a8	-0.07853824
24	0xbe3592fa	-0.17731848
25	0x3e07a195	0.13245232
26	0xbd0840d6	-0.033264957
27	0xbe17227c	-0.14759248
28	0x3e094601	0.1340561
29	0x3e041d90	0.12901902
30	0xbd76c160	-0.06024301
31	0xbe2707a9	-0.16311516
32	0x3e29f6ea	0.16598096
33	0xbd6b8873	-0.057503175
34	0xbdfa3f19	-0.12219066
35	0x3dfd6eef	0.123746745
36	0xbd949d80	-0.07256603
37	0x3d53b15d	0.05168282
38	0xbdef5979	-0.116869874
39	0xbe164c9b	-0.1467766
40	0xbdfcd445	-0.12345175
41	0xbc23a67a	-0.009988422
42	0xbe106990	-0.14102769
43	0x3e0b9526	0.13631114
44	0xbcab1fa7	-0.020889116
45	0xbe041088	-0.12896931
46	0x3dc34433	0.09534492
47	0xbe295097	-0.16534649
48	0xbd5d749c	-0.054066285
49	0x3d744d28	0.059643894
50	0xbe3c9d7e	-0.18419454
51	0x3b9a0ebb	0.004701463
52	0x3cd45d9b	0.02592354
53	0xbe2d1382	-0.16901973
54	0xbdfd55a3	-0.123698495
55	0x3ccdbcfb	0.025114527
56	0x3d17d5d7	0.037069168
57	0xbcf48fa6	-0.029853653
58	0xbe3d807d	-0.18506046
59	0xbde9260f	-0.11384212
60	0xbc4fa366	-0.012673235
61	0x3cd207e7	0.025638534
62	0x3d588136	0.0528576
63	0x3d4fb7f3	0.050712537

advantage.fc2.weight f4 [64, 64]
0	0xbd2f1286	-0.042742275
1	0x3d456051	0.048187558
2	0x3e2b43d0	0.16725087
3	0x3e8e783b	0.27826104
4	0x3e308f6f	0.17242216
5	0x3c1e8b90	0.009676829
6	0xbe0c43ac	-0.1369769
7	0xbd585f9d	-0.05282556
8	0x3d3c4236	0.04596158
9	0x3db738a6	0.08946352
10	0xbc79ddd4	-0.015250642
11	0x3d7e8fa5	0.06214871
12	0xbe1488bf	-0.1450529
13	0x3e2a4ed7	0.16631638
14	0xbd2a3d7d	-0.041562546
15	0x3c05f7b3	0.008176732
16	0xbd7ac4cc	-0.061222836
17	0xbc96a1f2	-0.018387768
18	0x3c4e3b76	0.012587419
19	0xbd2f856d	-0.042851854
20	0x3cefc3cf	0.029268174
21	0xbd460130	-0.048340976
22	0x3df3283d	0.11872909
23	0xbda69dbf	-0.081355564
24	0xbdba7dc1	-0.09106017
25	0x3db1a8a0	0.08674741
26	0xbbcc4f56	-0.0062350435
27	0xbe44b450	-0.19209409
28	0x3dfe9e3c	0.124325246
29	0x3dd99ecf	0.106259935
30	0xbd7bf105	-0.06150915
31	0xbde71e6d	-0.112851
32	0x3dd60db2	0.10451831
33	0x3d57495a	0.052560188
34	0x3d08e61d	0.033422578
35	0xbcb480cf	-0.022034077
36	0xbdefe044	-0.11712697
37	0x3e0638f0	0.13107657
38	0xbe2a59f1	-0.16635872
39	0xbe86f31b	-0.2635735
40	0xbd4c2dca	-0.049848355
41	0x3dbdf0eb	0.09274467
42	0x3e1a381c	0.15060467
43	0xbdfb531f	-0.122717135
44	0x3e1843f0	0.14869666
45	0xbd8e764c	-0.06956157
46	0xbe0f0377	-0.13966165
47	0x3d87a969	0.06624109
48	0xbd76d859	-0.06026492
49	0xbbb90af4	-0.0056470577
50	0xbdd0b479	-0.101906724
51	0xbc3b0a81	-0.011416079
52	0xbe278cfc	-0.16362375
53	0xbe381cb9	-0.17979707
54	0x3cf81975	0.030285576
55	0xbc7c7be1	-0.015410394
56	0xbe05f557	-0.13081871
57	0xbdb9b6ce	-0.0906807
58	0xbe110892	-0.14163426
59	0xbd30f8f7	-0.04320618
60	0x3dc6075d	0.09669373
61	0x3e3d254c	0.18471259
62	0xbe50c27a	-0.20386687
63	0xbc2403ce	-0.010010673
64	0x3d0d1ee0	0.034453273
65	0x3e0854e9	0.1331364
66	0xbdff3eda	-0.1246316
67	0x3d018177	0.031617608
68	0xbd5e8321	-0.054324273
69	0x3e0bc3c6	0.136489
70	0xbd94c084	-0.07263282
71	0xbd84f663	-0.06492307
72	0xbdadc68f	-0.08485138
73	0xbe6ec5e6	-0.2331768
74	0x3b7c3be1	0.003848784
75	0x3d506593	0.05087812
76	0xbe2ff827	-0.17184506
77	0xbd5c036a	-0.053714193
78	0x3da23577	0.07920354
79	0x3cea746f	0.028619973
80	0xbde32c9f	-0.11092495
81	0x3cbeaee9	0.023276763
82	0xbe001b90	-0.12510514
83	0xbe40cddd	-0.1882853
84	0x3dd4635e	0.10370515
85	0xbe3e6192	-0.18591908
86	0xbe4c801e	-0.19970748
87	0xbdf6cacf	-0.120504014
88	0x3ce30225	0.027710984
89	0xbd823615	-0.063579716
90	0x3d4ab920	0.049492955
91	0xbd6d3d9a	-0.057920076
92	0x3e0cfadb	0.13767569
93	0xbe2a0d4b	-0.16606633
94	0x3e458e58	0.19292581
95	0xbe49c40b	-0.1970369
96	0x3dd5a9a1	0.10432745
97	0x3d1980e2	0.037476428
98	0xbd08ee1d	-0.033430208
99	0xbe31cc66	-0.17363128
100	0x3e1f8821	0.15579273
101	0xbb81514d	-0.0039464594
102	0x3dfab22c	0.12241015
103	0xbe3c8aa0	-0.18412256
104	0xbda3f170	-0.08005035
105	0x3d460f02	0.048354156
106	0x3d1249d4	0.03571494
107	0xbdd382ff	-0.1032772
108	0x3d9e8b43	0.07741406
109	0xbe6e30c5	-0.23260792
110	0xbe06b3cd	-0.13154526
111	0x3b7386c0	0.0037159175
112	0xbe39471c	-0.18093532
113	0xbdf4b926	-0.11949377
114	0x3d060150	0.032716095
115	0x3df7be83	0.12096884
116	0xbd79e68c	-0.061010882
117	0x3d9ab4d9	0.07554025
118	0xbe15039e	-0.14552161
119	0xbdd1ce5b	-0.10244437
120	0xbc7e6bda	-0.0155286435
121	0x3d844440	0.0645833
122	0x3e553e90	0.20824647
123	0x3e8e2159	0.27759817
124	0xbe136934	-0.143956
125	0x3d91e2fb	0.07123371
126	0x3d9990dd	0.074983336
127	0xbdb1ed57	-0.08687847
128	0xbe2da58a	-0.1695768
129	0xbdd8d9ae	-0.10588394
130	0x3d78bcd0	0.06072694
131	0x3cebfbe3	0.028806632
132	0xbb48e31c	-0.0030652946
133	0x3c49b220	0.012310535
134	0xbebbfb59	-0.367152
135	0xbd35218b	-0.044221442
136	0x3dcac4d6	0.09900825
137	0xbd04d14c	-0.032426164
138	0xbc701238	-0.014652781
139	0x3cd9b1e8	0.02657409
140	0x3d8f513e	0.069979176
141	0x3d855645	0.06510595
142	0x3de02355	0.10944239
143	0x3c5d380f	0.013502135
144	0xbdbe72eb	-0.092992626
145	0x3de15d46	0.110041186
146	0x3dc5d524	0.09659794
147	0xbd37e88a	-0.0448995
148	0xbe13b4e9	-0.1442448
149	0x3d8eb4b3	0.069680594
150	0x3c0eefae	0.008724136
151	0xbbb0ce78	-0.0053957067
152	0xbdc8140f	-0.09769451
153	0x3e03a43d	0.1285562
154	0x3dddb7e9	0.10826094
155	0x3cefe227	0.029282643
156	0xbde28c33	-0.11061897
157	0x3da5b528	0.080911934
158	0xbb0521dc	-0.0020314371
159	0x3d571a78	0.052515477
160	0xbdfe20af	-0.12408578
161	0xbe4ccba9	-0.19999565
162	0xbe0e9310	-0.13923287
163	0x3dc7bad4	0.097524315
164	0x3dc9ae6a	0.0984772
165	0x3c8cef1d	0.017203862
166	0x3d771186	0.060319446
167	0xbd9a9da2	-0.07549597
168	0x3e2e633b	0.17030041
169	0xbd9a999b	-0.07548829
170	0xbd845dec	-0.06463227
171	0xbe474a3e	-0.19461915
172	0xbd0eb0fd	-0.034836758
173	0xbc88ef40	-0.016715646
174	0x3d1869c3	0.037210237
175	0xbdefef5b	-0.11715575
176	0xbdd5acdd	-0.10433362
177	0xbdfa12cb	-0.12210616
178	0xbe156486	-0.14589128
179	0x3d9235e8	0.07139188
180	0xbe1255a6	-0.14290485
181	0xbe8d912e	-0.27649826
182	0xbe5fd4ef	-0.21858571
183	0xbd394eac	-0.045241043
184	0xbddd537a	-0.108069375
185	0xbd99d219	-0.07510776
186	0x3d9ad361	0.075598486
187	0x3e115e0a	0.1419603
188	0xbdb65756	-0.08903377
189	0x3c627aab	0.013823192
190	0x3dd0c368	0.10193521
191	0xb929e869	-0.00016203675
192	0xbc59359e	-0.013257412
193	0xbde86efc	-0.113492936
194	0x3e32a604	0.17446142
195	0xbe1d2384	-0.1534558
196	0xbe0329df	-0.12808941
197	0xbd4a65d7	-0.04941353
198	0xbc93c370	-0.018037528
199	0xbc774409	-0.015091904
200	0xbe2b34d6	-0.16719374
201	0x3d2a56ee	0.04158681
202	0xbd0c764e	-0.03429251
203	0x3d30a2df	0.043124076
204	0xbd36a9d7	-0.044595566
205	0x3dceadcc	0.10091743
206	0x3d8bceb7	0.06826537
207	0xbdf51a59	-0.11967916
208	0xbc25f36c	-0.010128837
209	0xb997e92d	-0.00028974694
210	0xbccf1580	-0.025278807
211	0xbcb1d771	-0.021709176
212	0x3da3a8a4	0.0799115
213	0x3db75aef	0.08952891
214	0x3d4df859	0.05028567
215	0x3ca404b3	0.020021772
216	0x3c1c1c96	0.0095283
217	0x3d13ebfc	0.036113724
218	0x3da44183	0.08020308
219	0x3e0cd5e3	0.13753466
220	0x3e11b358	0.1422857
221	0xbd859c69	-0.065239735
222	0x3db113bf	0.086463444
223	0x3c59be92	0.013290064
224	0xbc9474d9	-0.018122124
225	0xbd8e9df7	-0.06963723
226	0x3d1594fb	0.036519032
227	0x3db37f99	0.08764572
228	0xbd7c85fe	-0.061651222
229	0x3cdfbff3	0.027313208
230	0x3e0291f1	0.12750985
231	0x3c1d45ae	0.009599132
232	0xbd04d7be	-0.03243231
233	0x3da439ae	0.08018814
234	0xbd76dd5e	-0.060269706
235	0xbe40a3fc	-0.18812555
236	0x3d4f7fd7	0.050659027
237	0x3d962c2b	0.07332643
238	0xbd5ef008	-0.05442813
239	0xbdee6dd6	-0.11642043
240	0xbd2b01d6	-0.041749798
241	0x3d166ada	0.036722995
242	0xbe49219f	-0.19641732
243	0xbb97f041	-0.004636795
244	0x3c00880d	0.007844937
245	0xbdf278ab	-0.11839422
246	0xbcdc59ea	-0.026898343
247	0x3dbb3838	0.09141582
248	0xbe3f95ba	-0.1870946
249	0xbd286879	-0.041115258
250	0xbde8cf4f	-0.11367666
251	0x3e13d5c0	0.14437008
252	0xbe884bf4	-0.26620448
253	0x3d62b0a2	0.05534423
254	0xbe192f59	-0.14959468
255	0x3d5fbf6f	0.054625925

advantage.fc2.bias f4 [64]
0	0x3c5c1dc3	0.01343483
1	0xbd97851a	-0.07398434
2	0x3d131e86	0.03591778
3	0x3d73e564	0.059544936
4	0x3dcdf981	0.10057355
5	0xbdb3c13e	-0.087770924
6	0xbdd859fc	-0.10564038
7	0x3e08cb64	0.13358837
8	0xbb2adc76	-0.0026071346
9	0x3e00eb3a	0.12589732
10	0x3d93a2ab	0.07208761
11	0x3d90d817	0.07072466
12	0x3ceafcd7	0.028685017
13	0xbc0b4298	-0.008499764
14	0xbd78987d	-0.0606923
15	0x3cef7965	0.02923269
16	0x3d20a12c	0.039216205
17	0xbd554c3e	-0.052074663
18	0xbd0aabca	-0.033855237
19	0x3cb107d1	0.021610172
20	0x3d26f045	0.040756483
21	0x3e335ba0	0.17515421
22	0xbd841476	-0.06449215
23	0xbd2e5285	-0.042559166
24	0xbd34a9ac	-0.044107124
25	0xbdfef3c4	-0.12448838
26	0x3e3e4bbc	0.18583578
27	0xbd2cb01e	-0.042160146
28	0xbdb59890	-0.088669896
29	0x3d52d839	0.051475737
30	0x3dfdabbf	0.123862736
31	0xbd5889bd	-0.052865732
32	0xbd4e4db3	-0.05036707
33	0x3d0cb285	0.034349937
34	0x3aabf764	0.0013119993
35	0xbdb89748	-0.090132296
36	0xbdfc9202	-0.12332536
37	0xbd02f3b6	-0.031970702
38	0x3db01f96	0.085997745
39	0xbd9cf829	-0.0766452
40	0xbdd138ee	-0.102159366
41	0x3e3904ba	0.1806821
42	0x3c288c6d	0.010287386
43	0xbd3d2dcd	-0.046186257
44	0xbd1ee838	-0.03879568
45	0xbd4d9c6e	-0.05019801
46	0xbde63132	-0.11239852
47	0xbddd4c88	-0.10805613
48	0x3e1eacb6	0.15495571
49	0xbe0c04e6	-0.13673744
50	0xbd94b834	-0.072616965
51	0x3db8e4c4	0.090280086
52	0xbd934159	-0.071901985
53	0xbb3c4db2	-0.0028732833
54	0x3cb53800	0.02212143
55	0xbdbcb6c7	-0.092145495
56	0xbdbb3729	-0.0914138
57	0xbe07e863	-0.13272242
58	0x3c5221ca	0.012825439
59	0xbd072d7f	-0.033002373
60	0x3e0cf2bd	0.13764472
61	0x3d92a22e	0.071598396
62	0x3d9a7b09	0.07542998
63	0xbd9b837e	-0.075934395

advantage.fc3.weight f4 [4, 64]
0	0xbe123445	-0.14277752
1	0x3e6e8b15	0.23295243
2	0x3ce39bab	0.02778419
3	0xbdc59dde	-0.096492514
4	0x3e16f4c5	0.1474181
5	0xbdbd0056	-0.0922858
6	0x3e001865	0.12509306
7	0xbdd3fa46	-0.1035047
8	0x3ce68d2c	0.028143488
9	0xbc8892c4	-0.016671546
10	0xbde28af0	-0.110616565
11	0x3e2caa8c	0.16861933
12	0x3ca5f2e2	0.020257417
13	0xbc55659f	-0.013024717
14	0xbc278d01	-0.010226489
15	0xbbdd2fe3	-0.0067500933
16	0xbda2a195	-0.079409756
17	0xbdc02cbe	-0.09383534
18	0xbe0f54c1	-0.13997175
19	0x3da9f7dd	0.08299229
20	0x3d537196	0.051621996
21	0xbc3a6fab	-0.011379163
22	0x3d64515b	0.05574165
23	0xbdfa6002	-0.12225343
24	0xbe069ff0	-0.13146949
25	0xbdd239a1	-0.10264898
26	0xbdca7cf5	-0.09887115
27	0xbddbd2ef	-0.10733592
28	0x3cf55f24	0.029952593
29	0x3bcb91d9	0.0062124548
30	0xbdddf970	-0.10838592
31	0x3d2ebedb	0.042662483
32	0x3e2844a4	0.16432434
33	0x3dcf396f	0.101183765
34	0x3cb0a9fa	0.021565426
35	0xbcc62a93	-0.024190223
36	0x3e39fe74	0.18163472
37	0xbddc8d12	-0.107690945
38	0xbd76c182	-0.060243137
39	0x3e2bb231	0.16767193
40	0xbe169481	-0.14705087
41	0x3b410ae7	0.0029455961
42	0xbb22ae4f	-0.0024823134
43	0x3d7c82ff	0.061648365
44	0x3c244627	0.010026491
45	0x3d041d7c	0.03225468
46	0x3d9a4098	0.075318515
47	0x3e1fd917	0.15610157
48	0xbdab2117	-0.08355921
49	0x3dcc5a9f	0.09978222
50	0xbda6824d	-0.08130322
51	0xb973b29a	-0.0002324082
52	0x3e897add	0.2685155
53	0xbd4ab622	-0.0494901
54	0x3d38f8ee	0.045159273
55	0xbde08733	-0.10963287
56	0xbdbefa8e	-0.09325133
57	0xbcf7c576	-0.030245524
58	0x3e8737b2	0.2640968
59	0x3e8579a4	0.26069367
60	0xbdd0f4cc	-0.10202941
61	0x3e059a83	0.13047223
62	0x3db401ec	0.08789429
63	0x3ea91e06	0.3303072
64	0x3e8a0278	0.26955009
65	0xbe226805	-0.15859993
66	0x3e0cb393	0.13740377
67	0x3c8e111b	0.01734214
68	0xbd5ae17c	-0.053437695
69	0x3d544b3e	0.05182957
70	0x3c9ca63a	0.019122232
71	0xbc42a728	-0.0118806735
72	0xbe0e9bfd	-0.13926692
73	0x3c17bda3	0.0092615215
74	0x3dad2430	0.08454168
75	0xbd08145c	-0.03322254
76	0xbe07da11	-0.1326678
77	0x3bff06bd	0.0077827857
78	0xbd671952	-0.05642063
79	0x3d68a208	0.05679515
80	0xbdce4c5f	-0.100731604
81	0x3da0f93f	0.0786004
82	0xba00f186	-0.00049188023
83	0x3d940e7e	0.07229327
84	0x3e001cf8	0.1251105
85	0x3de12801	0.10993958
86	0x3d309219	0.04310808
87	0x3e37390b	0.17892854
88	0x3cf53606	0.029932987
89	0xbd2d4289	-0.04229978
90	0x3d9353ef	0.071937434
91	0x3dabed3a	0.08394857
92	0xbdf3e9b6	-0.11909811
93	0x3d908538	0.070566595
94	0x3dd86e14	0.10567871
95	0x3d74a732	0.059729762
96	0x3d7b00e2	0.06128014
97	0xbe01be71	-0.12670304
98	0x3e0e29ee	0.13883182
99	0xbcffe9eb	-0.03123947
100	0x3d50ecb7	0.051007
101	0xbdb156d7	-0.086591415
102	0x3e24bad8	0.160869
103	0xbbd89bb0	-0.0066103563
104	0x3eae77ce	0.3407578
105	0x3d8726de	0.0659921
106	0xbe1da6db	-0.15395682
107	0x3e15f57b	0.14644425
108	0xbda696ea	-0.08134253
109	0xbdd247bb	-0.10267588
110	0x3d98c63f	0.074596874
111	0xbdacfa35	-0.08446161
112	0x3ce7ca9e	0.028294858
113	0x3db7eeaf	0.08981072
114	0x3cad52b8	0.021157607
115	0xbd6fb471	-0.05852169
116	0x3e39cdfd	0.18144985
117	0x3cbaa5fd	0.022784228
118	0x3d4af555	0.049550373
119	0x3e1d0a7a	0.15336028
120	0xbd010589	-0.03149942
121	0xbcdaa0f0	-0.02668807
122	0xbc2eb07f	-0.010662197
123	0xbe4a6652	-0.19765595
124	0xbcbbde7f	-0.022933243
125	0xbde69b9f	-0.11260151
126	0xbcea3ace	-0.028592493
127	0xbe2492b4	-0.16071588
128	0xbe290451	-0.16505553
129	0x3e677402	0.22602847
130	0x3e04d96d	0.12973566
131	0x3cc746a4	0.024325676
132	0x3e47661b	0.19472544
133	0xbb9dc764	-0.004815029
134	0x3dcb5f76	0.09930317
135	0x3d266c40	0.04063058
136	0xbbe4d72c	-0.0069836583
137	0x3d5b3f1d	0.053526986
138	0xbd22947b	-0.039692383
139	0x3ea8e2cb	0.3298553
140	0x3e1e5f62	0.15466073
141	0xbd671b18	-0.056422323
142	0xbde5ba85	-0.112172164
143	0x3d918afd	0.07106588
144	0x3d3160ef	0.043305334
145	0xbd2962a0	-0.04135382
146	0xbe4e0d30	-0.20122218
147	0xbe46702b	-0.19378726
148	0xbdbee43b	-0.09320875
149	0x3de2a2c1	0.11066199
150	0xbe44628d	-0.19178219
151	0xbcf1ed71	-0.029532166
152	0x3d1ef0a3	0.038803708
153	0xbdbaa7fd	-0.091140725
154	0xbb715d17	-0.0036829168
155	0xbdae28c7	-0.085038714
156	0x3e5c03af	0.2148578
157	0x3e507100	0.20355606
158	0x3d98a59d	0.07453463
159	0xbd1e38c3	-0.03862835
160	0xbe6031d1	-0.21894003
161	0xbd843b25	-0.064565934
162	0x3d642ec8	0.055708677
163	0x3d9b48f1	0.07582272
164	0xbe0161dc	-0.12634987
165	0xbe266362	-0.16248849
166	0xbdd6a00c	-0.10479745
167	0xbc567f8e	-0.013091935
168	0x3e8b9532	0.27262264
169	0x3d605dad	0.054776836
170	0x3e5449e4	0.20731312
171	0xbd4eee23	-0.050520074
172	0x3d35070c	0.044196174
173	0xbdc726c8	-0.09724194
174	0x3dc2e659	0.095165916
175	0x3ca40964	0.020024009
176	0x3da1f9d8	0.07908982
177	0xbcec391e	-0.02883583
178	0xbd847d81	-0.064692505
179	0x3d665476	0.056232892
180	0xbe6fcf30	-0.2341888
181	0x3d0fbb98	0.035091013
182	0x3d02ae68	0.031904608
183	0xbd88dcbe	-0.06682728
184	0xbe31be73	-0.17357807
185	0xbd1e7879	-0.03868911
186	0xbd264a03	-0.040597927
187	0xbc9c1fbe	-0.019058105
188	0xbdbd83d4	-0.0925366
189	0x3ca8aefe	0.020591255
190	0xbe646932	-0.22305754
191	0xba53204f	-0.00080538256
192	0x3d5af5e3	0.053457152
193	0xbe1b407a	-0.15161315
194	0xbddfc8f0	-0.10926998
195	0xbddc86cb	-0.10767897
196	0xbd9ca763	-0.07649114
197	0xbca92211	-0.020646127
198	0xbd9173d9	-0.07102174
199	0x3cabcd1f	0.020971833
200	0x3e336d0b	0.17522065
201	0x3df32be4	0.11873606
202	0x3ddce2c4	0.107854396
203	0xbeacfe58	-0.337878
204	0xbd9c1f68	-0.07623178
205	0x3bb54fa0	0.0055331737
206	0x3e130d65	0.14360578
207	0xbda9c29d	-0.08289073
208	0x3e66a4bc	0.22523779
209	0x3e289295	0.16462167
210	0x3e94cb66	0.2906143
211	0x3e565bfd	0.20933528
212	0xbca9f30f	-0.020745782
213	0x3da0691b	0.07832547
214	0xbc3a2d7c	-0.011363383
215	0x3dfecbfd	0.124412514
216	0xbd244628	-0.04010597
217	0xbdafa28d	-0.08575926
218	0xbd231434	-0.03981419
219	0xbc92932d	-0.017892445
220	0xbc933543	-0.017969733
221	0xbe7cf1be	-0.24701592
222	0xbe12162a	-0.14266267
223	0x3dbb03de	0.09131597
224	0xbdca0b10	-0.09865391
225	0x3d36d148	0.04463318
226	0xbddeb5b8	-0.10874504
227	0x3b820a1b	0.00396849
228	0xbdd7460b	-0.105114065
229	0x3d6a2499	0.05716381
230	0x3e38d955	0.18051656
231	0xbda87dbe	-0.082271084
232	0xbe8ec4ff	-0.2788467
233	0x3df471cb	0.11935767
234	0x3d110eb8	0.035414428
235	0xbe2855c6	-0.1643897
236	0x3d5f3c47	0.054500844
237	0xbd040f4f	-0.032241162
238	0x3da1853e	0.07886742
239	0x3d2193b0	0.039447486
240	0xbb8d5a8a	-0.0043137716
241	0xbe59d3ee	-0.21272251
242	0x3e236632	0.15956953
243	0x3e0d91e3	0.13825183
244	0xbdcb1447	-0.09915977
245	0xbd37bc56	-0.044857346
246	0x3e0629f8	0.13101947
247	0x3e3bd354	0.18342334
248	0x3d222d03	0.039593708
249	0xbdbbe4d6	-0.09174506
250	0xbe3b11d7	-0.18268524
251	0xbea855fb	-0.32878098
252	0xbdb5c16a	-0.088747814
253	0xbc8e3a69	-0.017361837
254	0xbd648b95	-0.05579718
255	0xbdfc0094	-0.12304798

advantage.fc3.bias f4 [4]
0	0xbd7a8439	-0.061161254
1	0x3e2a7672	0.16646746
2	0xbe0f18fd	-0.13974376
3	0xbbf83666	-0.007574844

aggregate.weight f4 [4, 5]
0	0xbeb4875e	-0.35259527
1	0xbe916462	-0.28396899
2	0x3d85056b	0.06495174
3	0xbec69527	-0.3878567
4	0xbda6a982	-0.081378
5	0xbe3c9b92	-0.1841872
6	0xbed1de7e	-0.4099006
7	0xbe0e4f2c	-0.13897389
8	0x3dd2b371	0.10288132
9	0xbce8013e	-0.028320905
10	0xbec1bb18	-0.37838054
11	0x3ea6ce6c	0.32579362
12	0xbdd92841	-0.10603381
13	0xbdcdf3aa	-0.10056241
14	0x3ef89152	0.4854837
15	0x3e2e7b3f	0.17039202
16	0xbec61869	-0.38690498
17	0x3ee71f43	0.45141038
18	0xbe876863	-0.26446828
19	0x3e2f4731	0.17117001

aggregate.bias f4 [4]
0	0x3e527c09	0.20555128
1	0x3e5e6fdb	0.21722357
2	0x3ebf1dad	0.37327328
3	0xbd920b2e	-0.071310386
