checkpointep500.pt (torch_old, 56221 bytes, 13 tensors)

value.fc1.weight f4 [64, 37]
00000000: e708 ecbc 104d 78bc 1c83 30be a8a7 e2bd
00000010: 929b 5abc 7a50 4e3e c965 a8be 78f3 18bd
00000020: 8c08 a1be b065 81be b63c 2ebe 516a db3d
00000030: 0642 abbe 1bb7 a4be 9d5a 80bd 84b9 0ebe
00000040: fc29 2b3e df6a 803d 9698 0ebe 9039 a3bd
00000050: 0911 703d af1c 0b3d 67f3 61bb b95a d0bd
00000060: 03b1 d5bd e4e5 f7bd 5ebb 973e 7d3a b3be
00000070: 9f6a fcbd e6bb 133c 305a 1abe 22a3 743d
00000080: fb2a a6bd 2369 4dbc ec49 6dbe 8d90 ccbd
00000090: b976 5dbd 46d0 d53d d00c d8bd 9eb0 043e
000000a0: f999 86bc 7efe a2be c634 913d b66b d2be
000000b0: f1c6 dfbd e8aa 10be 8c23 3dbe 1002 3c3e
000000c0: 5f55 96bd e883 4bbd 86aa 8abc 3cf8 aebe
000000d0: c9fb 50be ac69 723d 99e4 f93d 2702 f33d
000000e0: 66b6 afbe f11a 8c3d c170 28be 49cd c8be
000000f0: 9baa c1be 16b4 1cbf a89b 3abd 112f 8d3d
00000100: c452 73bd c2a7 64be f4bd 8dbe a6a6 b2bd
00000110: 96e1 393d d5e7 643e f00c 963d 7894 ccbc
00000120: 01a5 fdbd 5f77 3b3d ff8d 773e 3144 e83d
00000130: 0b2e 913d 79b1 d3bd 1b7a 9d3d 15c4 33be
00000140: ac44 d9be 74a4 4b3e 4f5c b13d 5a4a d4be
00000150: 4018 963d 984d 76be 1a67 fabc ee6c a23d
00000160: 2337 7bbc 55d1 2cbe db92 5b3b 06ac f43d
00000170: d693 c93e 151d 02be 16ce 82be e196 ba3c
00000180: 7c27 d73d be5d 353e 68e8 0dbe 808d 12be
00000190: 3409 053e 1f10 0f3e 8aa9 acbe ccf8 debd
000001a0: 5a6e 94be 8d1a 76bd feba afbd 19a6 54be
000001b0: fce4 bd3d 37fa 05be e077 98bd 6534 df3d
000001c0: 6a65 a6be 5336 bdbe 878a 673e 13b1 d8be
000001d0: 5d2c b9bd ecfa cebe 740a b6be d826 413e
000001e0: 4845 edbe e5c2 4e3d 1fe2 d4be aef7 743d
000001f0: d3ef 88be bd5e cdbd 8f1b bf3c ee29 c9be
00000200: 9cd5 a2be 611c 8cbe ea8d f6be 94b5 0f3e
00000210: 5aff d2be 664c b3be ac6f d23d 2313 c53c
00000220: 1986 473e 2b39 8dbe ef11 42be bdc7 3bbe
00000230: 4edb 0e3e c504 6c3d 882d 51bc 1751 763d
00000240: c609 b2be ab29 493e ec1b 803d 24d8 ba3b
00000250: e85d 1ebe a874 2bbe de84 1ebd d993 1fbe
00000260: c438 e83d 74ca 653e 4de2 163e caca 03bf
00000270: 6f49 9b3c 7295 6dbf 5135 283e 9628 07bb
00000280: 340e 39be 196c 29be b9bd 94be bc18 0fbe
00000290: 3cab 9bbd f076 95bd ee16 e93d 2e5e 2f3e
000002a0: a1f2 28be 360f ab3c 084c 083e ee7b 363d
000002b0: 8893 b63e 120c 073d 6fdd b8bd 27ed a73d
000002c0: 9761 903d 5581 863e 18c3 c43c 937e f43c
000002d0: c36c 893d 0ba1 f33d 7d1e 593e 8fe8 a1bd
000002e0: 9339 423c ef8e 1f3d 96c6 303d ebf3 d3bd
000002f0: 0b1b 19be 7705 213e 6789 473d 15bf 9d3e
00000300: cb25 b6bd 7021 0c3d 445f eabe ecd4 aebd
00000310: f516 a8bd 9930 093e a246 38be 0c7e 3b3d
00000320: 374d cdbd 5a21 493e 085e 12be 1cfb f2bc
00000330: 29da f93c 419d 103d cfd2 a4bc d303 673e
00000340: 3cce 363d acf4 343e de9f 07be e90b a53c
00000350: b5fe 003e d66c f53d 5cd1 07bc d391 2c3e
00000360: 7084 7fbe d928 4fbe 5fb5 523d 145d 1cbf
00000370: 53c6 263c c27c a03c 60d9 e23d c59f c7bc
00000380: 281b d13c 1c8a 60bd f140 1fbe 3594 0a3d
00000390: 4439 9c3c c033 813d 3fb8 013d 1ade b53d
000003a0: e6ad a93d 3c0a 483d 1eb3 b93d e0bc 983d
000003b0: db6e 983d a3e5 9abd 502b 403c 87b1 6c3d
000003c0: aeb0 2d3d b472 973d 5692 88bd 4caf 063c
000003d0: fd16 943d f350 d33d 7f73 683e 4b2f 33bd
000003e0: d02a f2bc 7a06 c6bc cc4d 8dbd 8798 d4bc
000003f0: dcd6 d93e 639d dbbe 3cb5 96be 954c b6be
-0.028812839 -0.015155092 -0.17237514 -0.11067134 -0.013342755 0.20147887 -0.32890156 -0.037341565
-0.31451833 -0.25272894 -0.17015347 0.107136376 -0.3344881 -0.32170948 -0.06267283 -0.13937956
0.16715235 0.06270384 -0.13925394 -0.079699636 0.058609996 0.0339629 -0.0034477354 -0.10173554
-0.10434153 -0.12104395 0.29635137 -0.3500556 -0.12325024 0.009016966 -0.15073466 0.059725888
-0.081136666 -0.012537274 -0.2317273 -0.099885084 -0.0540683 0.10440116 -0.10549319 0.12957999
-0.016430842 -0.31834787 0.07090144 -0.41097802 -0.10926617 -0.14127696 -0.18470591 0.18360162
-0.07340502 -0.049686342 -0.016927015 -0.34173763 -0.20408548 0.059182808 0.12201805 0.11865645
-0.34318846 0.06841076 -0.16449262 -0.3921912 -0.37825474 -0.6121229 -0.0455586 0.06893743
-0.059405103 -0.2232962 -0.27683985 -0.08723192 0.04538115 0.22354062 0.073266864 -0.02497314
-0.123849876 0.045768138 0.24175261 0.113411315 0.0708886 -0.103365846 0.076893054 -0.17555268
-0.42435205 0.19886953 0.086601846 -0.41462976 0.07328844 -0.24053037 -0.03056674 0.07930933
-0.01533297 -0.16876729 0.003350428 0.11946873 0.39370602 -0.12706406 -0.25547856 0.022777023
0.10505578 0.17711541 -0.13858187 -0.1431179 0.12991792 0.13970993 -0.33723098 -0.10887298
-0.28990442 -0.060083915 -0.08580588 -0.20766486 0.09272191 -0.1308373 -0.07444739 0.10898665
-0.32499248 -0.3695551 0.22611438 -0.42322597 -0.09041665 -0.40425813 -0.3555485 0.18862474
-0.4634192 0.050478835 -0.41578767 0.05980652 -0.2674547 -0.100278355 0.02332857 -0.39289802
-0.31803596 -0.273654 -0.48155147 0.1403411 -0.41210443 -0.35019225 0.10275206 0.024056977
0.19484748 -0.27582678 -0.18952154 -0.18337913 0.13950846 0.057621736 -0.012767203 0.060135927
-0.34773082 0.19644801 0.06255326 0.0057020355 -0.1546551 -0.1674372 -0.03870093 -0.15583743
0.11338952 0.22440511 0.14734764 -0.51481307 0.018955914 -0.9280616 0.16426589 -0.0020623556
-0.18071824 -0.16545142 -0.29050997 -0.13974279 -0.0760102 -0.07298076 0.113813266 0.1712577
-0.16498806 0.020881277 0.13310254 0.044551782 0.35659432 0.032970496 -0.0902661 0.0819953
0.07049864 0.26270548 0.02401881 0.029845512 0.06710198 0.11895951 0.21203037 -0.07905685
0.011854547 0.03895467 0.043158136 -0.10349258 -0.14951722 0.15724741 0.04871502 0.30809847
-0.08893927 0.034211576 -0.45775807 -0.085367054 -0.08207504 0.13397445 -0.17995694 0.045774505
-0.10024493 0.19641629 -0.14293683 -0.029660754 0.030499535 0.03530622 -0.020120053 0.22560053
0.044630274 0.1767146 -0.13244578 0.02014728 0.12597163 0.119836494 -0.008289661 0.16852503
-0.24952865 -0.20230426 0.0514425 -0.61079526 0.01017912 0.01959074 0.11076617 -0.024368176
0.025525644 -0.05481921 -0.15552117 0.033832747 0.019070275 0.06308699 0.03166985 0.08880253
0.082851216 0.048837885 0.09067367 0.074579 0.07443019 -0.07563331 0.0117290765 0.05778649
0.042404823 0.07394925 -0.06668536 0.008220505 0.07230947 0.10318174 0.22700308 -0.043746274
-0.02956143 -0.02417301 -0.06899604 -0.025951637 0.42546737 -0.42893514 -0.29435146 -0.35605302

value.fc1.bias f4 [64]
00000000: 534a 3f3d fc15 85bd 04fe 2dbe fcbd b8bd
00000010: e23c 133e 336d 36bd b061 a6bd 6c33 0e3d
00000020: cd67 2f3d 7020 62be 4377 383e 8fb7 2b3e
00000030: 848c 093e 2773 103d 17c1 cbbd 8f28 87bd
00000040: 216f fb3c 5e34 efbc 7acc 5abd f776 8bbe
00000050: b31f edbd fc01 a03a 0fac aebc f0ed 24be
00000060: 89eb 03be 7b86 763e 475e 6fbc d8bc d2bd
00000070: 961e 233e 411e e33d cc88 d0bd 7346 eebd
00000080: 34cb 643e 7475 9c3c bbbb 1fbe 02d2 eebc
00000090: c62a 2dbe 4b4e 74bd 8e21 4e3b eae2 13be
000000a0: 4f07 b3bc acb4 90bb 9d1d 0abe 4540 d03d
000000b0: 8d95 87bc dcbf edbd e3d1 be3d 68ab 1fbe
000000c0: 56f5 febd 3f7e 063d aa96 1fbe b637 5f3d
000000d0: c4ec 913d d20a 82bd 8fb1 6cbe 028d 643c
000000e0: 1f86 be3d 846d b8bd 36c1 edbd d536 09be
000000f0: 84d1 91bb d394 aabc 0db8 0f3d 043c 68bc
0.04670174 -0.06498334 -0.1699143 -0.09020612 0.14378694 -0.044537734 -0.08124101 0.03471701
0.0428236 -0.22082686 0.18014245 0.16769241 0.13432509 0.035266068 -0.09948938 -0.06599533
0.030692639 -0.029199775 -0.05341766 -0.272392 -0.11578312 0.0012207623 -0.021322278 -0.16106391
-0.12882818 0.24074738 -0.01460988 -0.10289925 0.15929636 0.11089755 -0.10182342 -0.11634531
0.22343141 0.019098975 -0.15598957 -0.029152874 -0.16910848 -0.05964498 0.0031453106 -0.1444203
-0.021854071 -0.004416069 -0.13487859 0.101685084 -0.016550804 -0.1160886 0.093173765 -0.1559273
-0.12449138 0.03283524 -0.15584818 0.05449649 0.071252376 -0.0634972 -0.23114608 0.0139496345
0.09302925 -0.090052634 -0.11609118 -0.13399823 -0.004450025 -0.020822918 0.035087634 -0.014174465

value.fc2.weight f4 [64, 64]
00000000: ecc2 16be b460 f93c ee8d 033d 6a95 243e
00000010: 23db 84bd 62db 69be c41b 50be 3480 813e
00000020: ca71 b83c bca3 87be 9517 75be e6ac 5bbe
00000030: c1bd a0bd 3e23 c13c b462 0a3e a66b 0b3e
00000040: adcc 01be 1e82 adbe 6f4c 6a3e 6132 b53d
00000050: 5d8d 19be 2126 e2bd d0cd 843e ea9e 87be
00000060: 0393 4cbe 0d62 953c 5693 2c3e edaf 2d3d
00000070: c2e8 533b 109d 46bd 034c 30be b7ea babd
00000080: b81f a13d 544c 90bd 0b56 bcbd 96a4 15bd
00000090: d842 3dbe 2253 cb3c 770d 483e 8845 c2bd
000000a0: a913 d3bd f236 d5bd 7b90 bd3b 09ec d3bc
000000b0: 7535 623e 577e 2cbe 9adb 57be 38b7 94bd
000000c0: d833 fabd 6ad3 ddbc f3a7 1a3e 25e2 50be
000000d0: f422 86be 2362 03be accb 9c3d 0e22 66be
000000e0: 154e 26be c99b 2dbe b99c 50bd d32b de3d
000000f0: b2e4 c63d 5350 333e 5d3e 223d 3d0b 893d
00000100: 22ee f3bd 97cb 983d 9c75 7cbd 520c 833e
00000110: 3c5f 54bc fd72 a83b 5beb 34be d72b bf3d
00000120: a8fa 06be 0b41 953d 8a70 b13c 557a 4f3d
00000130: 691c 493c 6e38 633d 9abd 15be 4969 61bc
00000140: 5447 20be 165e 203d 772f dbbd 1c88 d6bc
00000150: c486 783c 9660 6bbe c096 86bd 5148 8b3b
00000160: 4020 13be 9474 023e a4ca d1bc d5d5 55bc
00000170: 9a01 893c 94b6 0dbe b68c 32bd a858 1abe
00000180: 7e15 49bb d115 323d a7f9 1f3d b540 2fbe
00000190: 3e4c 313d f84c babc 5b2b 8d3c bd32 30be
000001a0: 76fc 35bd aaf4 04bd c48e 213d 7509 18be
000001b0: efa7 17be dfa5 0cbe f068 66be 4c0a 59be
000001c0: 7764 0dbe 485e d0be 4033 dfbd a4b5 ff3c
000001d0: 1078 e7bc 1b44 b5bc ceee 7d3d 0bb9 9dbb
000001e0: fd0b 5bbe 7ab0 7cbd bce3 f33d c56a 813d
000001f0: c743 1dbe ea4a 12be 48bc d2bd f367 de3c
00000200: 2b28 323d 4fa6 5ebe 4d13 8c3d f7e3 bb3d
00000210: e0a7 043d 3054 7c3d 7d83 85bd e1cb 9f3c
00000220: 3b2d 0a3e c56b 43bd 09b0 f03d 3495 163e
00000230: 7ebf 103e 0f84 7e3e f074 573c cda9 783e
00000240: ce13 31be 120f f83a 03a7 df3b 8b9c 35be
00000250: cd2d f8bd 0ef8 9c3d f5ee aa3d c721 a73b
00000260: 4e35 db3d b5d3 5b3e 8a4f 243e b060 853e
00000270: ee29 2bbb d977 3f3e 3ad3 db3d 4a81 40bd
00000280: 02ad a5bc 605d 0d3e 7fa4 adbe 6ed0 b43c
00000290: 6340 1f3e 2d16 843e a4dc 743e 0b02 65be
000002a0: 297d 133e 89d5 4dbd 678c fe3d 5bf3 66be
000002b0: c46e df3b bb4c d63c 41d0 7fbd cdf7 babe
000002c0: ae64 c7bd 59d6 c9bd 50ba f93d 7f17 d03b
000002d0: 6721 173c 49d9 1a3e cdc0 bebe 3335 9a3d
000002e0: 8319 b0bd 0daf 56be 96fb 183e b2ba 823e
000002f0: 77b4 debd 5714 9bbe fcfa bf3d e785 14bd
00000300: fa1c 493d cc52 8bbe 5871 0e3d c9ff 7fbe
00000310: 4747 373e 1d2e 76bd a648 73be 0d15 eb3b
00000320: a742 8b3c 6b8b 9a3d a312 57be 6f88 903e
00000330: eb99 91bd af68 a5bc 52f9 5f3d caa3 2c3e
00000340: b4dc 51bd 074c c03c cc60 31bd 31ec a3bc
00000350: 0f9b 193d ddce 313d 050e 4cbc 207f ba3d
00000360: 681d 973e face 39bd 8e71 38be 7a35 44be
00000370: 03d9 8a3d 19f1 acbe 5524 383e c3ee 25bb
00000380: 996b 2ebe fb24 5cbe b91b 493d 432b df3d
00000390: 46ea 17be ba45 91ba 3a67 29bd 688b 84bc
000003a0: d318 73bc 5f95 ba3c c589 fcbd 8b24 5ebe
000003b0: 49fa 10bd 4283 d9bc f4f5 29bd b6b3 4f3d
000003c0: fe39 c2bd 6379 85bd f1e0 463b 3872 823d
000003d0: 4763 353e 93b4 a2bd b37c 193c e8b5 453d
000003e0: cd23 cdbd c098 35bd 11ec 333b 44d0 6f3e
000003f0: 193b 34be 3bd4 23be 7dd7 34be 3282 4fbe
-0.14722794 0.03044162 0.032117777 0.16072622 -0.064871095 -0.22837594 -0.20323092 0.25293124
0.022515196 -0.26492107 -0.23934777 -0.21452674 -0.07848693 0.023576375 0.13514215 0.13615283
-0.12675734 -0.33888334 0.2288072 0.088475 -0.14995332 -0.11042429 0.25938272 -0.2648843
-0.19977956 0.01823523 0.16853079 0.042404104 0.003233478 -0.04848963 -0.17216496 -0.091267996
0.07867378 -0.070458084 -0.09196099 -0.036533915 -0.1848253 0.024819914 0.19536386 -0.09485918
-0.10306484 -0.104108706 0.0057850457 -0.025869386 0.22090705 -0.1684507 -0.21079865 -0.07261509
-0.1221692 -0.02707835 0.1510313 -0.20398767 -0.26198542 -0.12830405 0.07656035 -0.22473928
-0.16240723 -0.16953959 -0.050930712 0.108482026 0.09711589 0.1751111 0.039610256 0.06691597
-0.119106546 0.07460707 -0.0616356 0.25595337 -0.012962159 0.005140661 -0.17667906 0.09334534
-0.13181555 0.072877966 0.021660108 0.050653774 0.01227484 0.055473737 -0.14623109 -0.013758012
-0.1565221 0.039152227 -0.107024126 -0.026187949 0.015168849 -0.22986063 -0.06571722 0.004250564
-0.14367771 0.12739784 -0.025609322 -0.01305147 0.016724396 -0.1383918 -0.043591224 -0.15072882
-0.0030682976 0.043477837 0.039056446 -0.17114528 0.0432856 -0.02274178 0.017232588 -0.17206855
-0.04443022 -0.032459892 0.039442793 -0.14847358 -0.14810155 -0.1373515 -0.22500968 -0.21195334
-0.13807856 -0.4069693 -0.10898447 0.031214543 -0.028255492 -0.022127202 0.06199532 -0.0048133186
-0.21391292 -0.06169174 0.11908671 0.06319193 -0.15357886 -0.1428639 -0.10289818 0.027149176
0.04349534 -0.21743129 0.06839619 0.0917434 0.03238666 0.061603725 -0.0651922 0.019506397
0.13493817 -0.0477102 0.11752326 0.14705354 0.14135548 0.24855064 0.013150439 0.24283524
-0.17292711 0.001892539 0.0068253293 -0.17735498 -0.12118111 0.076645 0.08346359 0.005100462
0.107035264 0.21467479 0.16045967 0.2605033 -0.0026117521 0.18698062 0.10733648 -0.0469983
-0.020224098 0.13805151 -0.33914563 0.022072043 0.15551905 0.2579817 0.23912293 -0.2236406
0.14403214 -0.05025247 0.12429123 -0.2255377 0.006818624 0.026159635 -0.062454466 -0.36517182
-0.09736 -0.09855337 0.121937394 0.006350457 0.009224272 0.1512195 -0.3725647 0.07529678
-0.08598616 -0.20965214 0.14939722 0.25533062 -0.10874265 -0.30288956 0.09374043 -0.03626051
0.0490999 -0.27211607 0.03477606 -0.24999918 0.17898284 -0.06010257 -0.23758182 0.0071741403
0.016999556 0.07546123 -0.21003203 0.2822909 -0.07109436 -0.020191519 0.05468113 0.16859356
-0.05123587 0.023473753 -0.043305203 -0.020010086 0.03750139 0.04341017 -0.012454514 0.091062784
0.29514623 -0.045363404 -0.18012068 -0.19161025 0.06779673 -0.33777693 0.1798261 -0.0025319315
-0.17033233 -0.21498482 0.049098704 0.108969234 -0.14835462 -0.0011083402 -0.04135821 -0.016179755
-0.0148374615 0.022776304 -0.12330965 -0.21693628 -0.03539494 -0.026551846 -0.041494325 0.050708495
-0.094837174 -0.06517293 0.0030346478 0.06369442 0.17713653 -0.07944598 0.0093681095 0.048269182
-0.10016594 -0.044335127 0.002745394 0.23419291 -0.17600669 -0.15998928 -0.17660327 -0.2026451

value.fc2.bias f4 [64]
00000000: 0ef0 d7bc bf2b 45be f92a 15bd 877a f13c
00000010: b61c 313e 2458 17be 1a1a d6bd 3d35 023e
00000020: 41b4 d93d 62ba 133d f6f0 953b adf3 c93c
00000030: 9577 803d 8aa7 27bc f3a1 adbc 1bf3 553c
00000040: 1bf8 eb3c 48c2 cf3c 2119 0bbb f82f c93a
00000050: bd26 413e 235a 053e 5c53 923d 1eb0 febd
00000060: b3b9 19be eed3 543c e56c 0b3e c947 95bd
00000070: 0202 5bbd 7c46 603c 5931 483d 1c33 cdbd
00000080: 0731 8c3c 69c8 393e 6a60 57bc e545 f5bc
00000090: a992 213d 7424 2abe cf8c 8e3d 5e9b 00be
000000a0: 114e febd 69c6 a93d 221c 4b3c c66d 163d
000000b0: 0a07 6bbd 775b 7fbd e491 06be bb23 3abd
000000c0: f610 0f3e 82c3 84be 948b 5fbc a0c6 253e
000000d0: 178c 39be 5cf6 babd 90ea f53d c41a 52be
000000e0: 7b22 0fbe 66d8 a93c bd79 c43c 5320 753c
000000f0: 0917 0f3e 4a56 543e ab0a 183e 345b e8bd
-0.026359584 -0.19254969 -0.036417935 0.02947737 0.17296109 -0.14779717 -0.10454197 0.12715621
0.10630084 0.03606642 0.004575844 0.024652326 0.062728085 -0.0102328155 -0.021195387 0.013058449
0.02880483 0.025361195 -0.0021224695 0.0015349379 0.18862434 0.13022666 0.07144806 -0.124359354
-0.15012245 0.012989981 0.13615759 -0.072890826 -0.05346871 0.01368868 0.048875187 -0.10019514
0.017113222 0.18142857 -0.0131455455 -0.029940555 0.039446507 -0.16615468 0.06960451 -0.12559268
-0.12417234 0.08289797 0.012396844 0.03672578 -0.05737976 -0.062343087 -0.1314159 -0.04544423
0.13971314 -0.2593041 -0.013644118 0.1618905 -0.18119846 -0.091290206 0.1200763 -0.20518023
-0.13977997 0.02073307 0.02398383 0.01496132 0.13973631 0.20736042 0.1484782 -0.113455206

value.fc3.weight f4 [1, 64]
00000000: 180c fdbe 07cd fe3d 557a 4f3e 27b4 7cbe
00000010: 6828 323e d663 86be 3de0 363e 1697 11be
00000020: c5a6 803d 3ae8 bfbe 83b3 dabd bfdb f53e
00000030: 1f10 1dbe 32a4 003f efe6 c6be 9a9e 91be
00000040: b599 cebe 8670 db3d 2433 b1be 3eac a13e
00000050: 4ae2 1e3e 5087 6cbe 117e a13d ab6f 29be
00000060: 42a1 12bf d962 58be c4ce 27be 4b43 e7be
00000070: 5a56 c73d 9157 9abe ba78 e5be 12e8 173e
00000080: 7545 803e 93cd 4b3e 85ab 403e fe1d cbbd
00000090: 3e7b a53d db34 b0be f75b 073f 6248 d13e
000000a0: 8bd8 993d 4c19 433e 7efd 713e e624 e23d
000000b0: ba1d 1b3e 529f 4e3e c155 fb3e 6d90 273f
000000c0: af0f f3bd 3b80 7c3e ee99 eabd a8d2 343e
000000d0: 55a6 e13e aafd efbe 00c1 103e ee93 dc3e
000000e0: d4eb b6bd 8964 4cbe 8ee3 153f cab0 273e
000000f0: e8c7 2cbe dfea 3f3e d69e e43d 3099 853e
-0.4942329 0.124414496 0.2026151 -0.24678098 0.17398226 -0.26248044 0.17858978 -0.14217791
0.06281809 -0.37481862 -0.106787704 0.48019215 -0.15338181 0.5025054 -0.38848063 -0.28441316
-0.40351644 0.107148215 -0.3460933 0.31576723 0.1551601 -0.23098493 0.078853734 -0.16546504
-0.5727731 -0.21131457 -0.16387469 -0.45168528 0.09733267 -0.30144933 -0.4481867 0.14834622
0.25052992 0.19902639 0.1881543 -0.0991783 0.08080147 -0.34415326 0.528747 0.40875536
0.075120054 0.19052619 0.23631856 0.11042194 0.15148059 0.20177963 0.49088863 0.6545475
-0.11868226 0.24658291 -0.11455141 0.17658484 0.44072214 -0.46873218 0.14136124 0.4308161
-0.089316994 -0.19960226 0.58550346 0.16376033 -0.16873133 0.1874194 0.11163108 0.26093435

advantage.fc1.weight f4 [64, 37]
00000000: 754b b2bd d35e 053e 9959 dbbd efe7 c4bd
00000010: 1bfc 5c3d 7566 563d bbd5 6ebd 9906 1d3e
00000020: c362 51be 1c83 573e cd2a f5bd 4020 3bbc
00000030: fce1 1abe 9660 e8bd 7752 93be 8530 c43d
00000040: 95bc eb3c 2d4b 4fbd 6954 8abe 4c55 00bf
00000050: acfa 0d3c a8dc d63d 29b0 653d 693c 993d
00000060: 3ebf 8ebe cee1 af3c c13d 343e 2fc1 d7bc
00000070: 70bb a1be 0d7d 7dbd e86d 0abe d612 f43c
00000080: 2fa6 b7bd 65e4 683d 11f4 953c 7891 b0bd
00000090: 52fd 7dbc b5d8 723d b946 fa3d f5b8 253e
000000a0: 29dc f1bd a95a 3dbe 326c 6f3e b50b bbbe
000000b0: 65d3 a6be 7c15 19be f5ef 41bf 9046 5a3d
000000c0: 8bc8 823d 6bbe 46bb 05c6 9ebd 0b04 433e
000000d0: f7f1 de3d ec1e 48bc d130 e6bb be7c c23d
000000e0: a507 893e 2d97 88bd 8444 11be 164b cdbd
000000f0: 9731 5bbc 85fd 153d 3ad5 a0bd 05c3 403d
00000100: b7ed f63d f5b7 1f3c 36d8 873e dc8f 8cbd
00000110: 3722 f83d 2de5 7f3e e2c4 f4bc 7113 da3d
00000120: 105a ddbc 2c15 4dbb 602b 273e 92c0 043d
00000130: 373e 913d 15ed 8fbe a2e7 fc3d c09f 5c3d
00000140: 87ba c3be 1bff 383e ab4a 2e3e ef75 bfbe
00000150: f0ae 0a3d 1562 e2bd e623 81bc e8cb cdbc
00000160: e737 e23d 8314 86be b96c 043e 4ca1 1f3e
00000170: 9a0a 9dbe dc30 d63d cce2 c8be 36ab b33d
00000180: b9ef c63d c057 aebc 6650 9dbe cfbf 9ebc
00000190: a5a0 193e 542d f73d e7a4 77be f3c2 22be
000001a0: 701b 9ebd 1cd1 af3d 14a9 42be 381f c0be
000001b0: 05c0 42be 5901 9f3d 7840 66bd 2fbf 5c3d
000001c0: e5a9 ca3d 836b fb3d b7bb 803d 0d1a 88bc
000001d0: b034 0d3d 3351 7a3d fb3b ffbb 8c4b 4a3d
000001e0: 1393 1ebc 6b3b 9bbc d30d c93c d19c f23c
000001f0: 0ccb ff3c f465 8f3d 48e9 2ebd 6cab 1bbd
00000200: 2067 22bd 57f9 20bd 75f2 903c fbc9 5c3d
00000210: 4dde b83d 7588 b23d 3644 923d e1c6 523d
00000220: 5080 213d 4b5f 903d 22a8 c43d b601 f73d
00000230: 6c1b a53d 6d72 af3e 5d47 e4be a456 d2be
00000240: f869 cfbe ec1b 16c0 b99a d4ba 7ebe 0a3c
00000250: 05a5 0ebd 25a0 d5bd 2958 e9bd af19 dfbd
00000260: ba46 e43b cbfc ba3e d879 bebd 856e 01bf
00000270: 5d0e 13bf 7dd7 05c0 110a 0fbc 939c 32bd
00000280: 4c89 763c 2b39 a63d 6268 01be 2a02 b1bd
00000290: f603 31bd 164c 1b3d e7fd 383d e2ea 023e
000002a0: 52ed 4dbd b548 ec3c f82e 303e d53a 34bd
000002b0: 5041 2c3e 4758 023e 9059 f13c 74ab c93d
000002c0: fc2a 13bd 721b dfbd 9d62 0c3e 988c 2e3a
000002d0: 04f3 763d f941 243e 3c79 323e ee79 593d
000002e0: cbfb 823b a06c 843d a67d 88bd 6498 1abe
000002f0: c3a6 2cbe 6367 23be f7a8 fd3d 2e23 83be
00000300: 229b 1abd 2f44 dcbe 3fbf 6abf 96ef a7be
00000310: e588 d03c a73a a23d 5da1 b5be 4a83 bebd
00000320: 1324 b13d f944 2d3d fc76 27be 4d85 8ebe
00000330: 2dc6 c5be ad10 fdbd 661e 52be cc64 983e
00000340: a612 8f3c 26ce e8be 69f3 0abd 93ef 95be
00000350: 8321 ab3d 2e43 dabd bb42 99bf 78c5 83be
00000360: 6262 363d d284 b83d 7c14 11be c149 dfbe
00000370: b4f0 ed3c fd8b c73c 28cc 7a3e 4314 1dbe
00000380: 4123 44bd 6213 82be 948c 33bf 36f3 aebe
00000390: ddf3 a03b 41bc 2dbc 6461 773e 0dd5 de3c
000003a0: 002a 91be 6873 023e 92f0 bb3c e31a 5e3d
000003b0: 5bcd 9b3e f412 5cbe 0df6 b7be aedf 693e
000003c0: a9b7 283e 3b22 843e beda 6fbe 3363 873c
000003d0: 2f97 e33d aa8f 3cbd 33b1 febb 366e 71be
000003e0: af5e 923d fe6d 66bc af65 68be 084b 913d
000003f0: 96ce b33d 5f1c 85bd cbdd 413b 224c ddbc
-0.087057985 0.13024454 -0.10710449 -0.0961455 0.053951364 0.052343804 -0.058309298 0.15334548
-0.20447831 0.21046108 -0.11971054 -0.011421263 -0.15125269 -0.11346547 -0.28773853 0.09579567
0.028776446 -0.050608803 -0.27017525 -0.5013015 0.008665722 0.104913056 0.056076203 0.074822254
-0.2788028 0.021469977 0.17601682 -0.026337234 -0.31588316 -0.061886836 -0.13518488 0.029794138
-0.08967244 0.05685844 0.018304856 -0.08621496 -0.015502291 0.0592887 0.122205205 0.16183837
-0.1180957 -0.18491615 0.23381117 -0.3653237 -0.32583156 -0.14949602 -0.7575677 0.05328995
0.06385907 -0.00303259 -0.07752613 0.19044511 0.10885995 -0.012214404 -0.0070248623 0.09496449
0.26763645 -0.066694595 -0.14186293 -0.10024087 -0.013378522 0.03661873 -0.0785317 0.047060985
0.12057059 0.009748449 0.26532143 -0.068633765 0.12115901 0.24989767 -0.029879037 0.106482394
-0.027020484 -0.0031293137 0.1632514 0.03241021 0.07091945 -0.28110567 0.12348868 0.053863287
-0.38228247 0.18066065 0.17020671 -0.37394664 0.03385824 -0.11053864 -0.015764188 -0.025121644
0.11045819 -0.26187524 0.129321 0.15588874 -0.3067215 0.10458538 -0.39235532 0.0877289
0.09713692 -0.021282077 -0.30725402 -0.01937857 0.15002687 0.120691925 -0.24183999 -0.1589468
-0.07720077 0.08584806 -0.1900981 -0.37523818 -0.19018562 0.07763929 -0.056213826 0.053893264
0.09895686 0.122763656 0.06285804 -0.016613984 0.034474075 0.061112594 -0.0077891327 0.049388453
-0.00967862 -0.018949231 0.024542725 0.029615792 0.03122475 0.07001868 -0.042702943 -0.038005278
-0.03964913 -0.03930029 0.017693738 0.05390356 0.090267755 0.08717433 0.071419165 0.051459197
0.03942901 0.07049426 0.09602381 0.12060873 0.08061871 0.34266987 -0.44585696 -0.41081727
-0.40510535 -2.3454542 -0.0016220427 0.008468268 -0.034825344 -0.10430936 -0.11393768 -0.10893571
0.006966439 0.3652099 -0.093005836 -0.50559264 -0.5744379 -2.0912774 -0.008730427 -0.043606352
0.015047383 0.08116373 -0.12637475 -0.08642991 -0.043216668 0.037914358 0.045164015 0.12784913
-0.050275154 0.028843263 0.17205417 -0.04400142 0.1682179 0.12728988 0.029461652 0.09847155
-0.035929665 -0.10893907 0.13709493 0.00066585233 0.06029035 0.16040792 0.1742906 0.053094797
0.003997301 0.06466031 -0.066645905 -0.15097195 -0.1686049 -0.15957408 0.12385743 -0.25612777
-0.037745602 -0.4302077 -0.9169807 -0.32799977 0.025455901 0.07921343 -0.35474673 -0.09302385
0.08649459 0.042302106 -0.16353983 -0.27836075 -0.3862776 -0.12356696 -0.20519409 0.29764402
0.017464947 -0.4546978 -0.03392354 -0.29284343 0.08356001 -0.10657345 -1.197349 -0.25736594
0.04452742 0.090097085 -0.1416797 -0.43610957 0.02904544 0.024358744 0.24491942 -0.1533976
-0.047885183 -0.25405413 -0.7013638 -0.3416993 0.0049118833 -0.010603965 0.24158245 0.0272012
-0.28352356 0.12739336 0.022941861 0.05422486 0.3043011 -0.21491605 -0.3592991 0.22839233
0.16476311 0.25807366 -0.23423287 0.016526794 0.1111282 -0.046035446 -0.0077725886 -0.23577198
0.07146966 -0.01406431 -0.22695039 0.07094389 0.087796375 -0.06499552 0.0029581662 -0.027013842

advantage.fc1.bias f4 [64]
00000000: 5998 af3d 816e 03bd 0470 3dbe edcb cd3b
00000010: 8672 803e 8db6 71bd 80ca bebd 6915 073d
00000020: 4e6e 243c 5020 31be b711 cd3d 6aa3 033e
00000030: 0d2b cc3c 46dc 913d f9fd e4bc 4704 8dbd
00000040: f5b8 fb3a 0abf 633c 13f6 cbbd 5899 40be
00000050: ed2b 41bc f597 1a3d c0c7 1f3c fc22 7cbd
00000060: 6c86 05be 058c 0f3e 1543 b1bc 3706 3fbe
00000070: f043 1a3e dd84 e03d fd5d febc 3e60 1dbe
00000080: 70b1 1e3e 4f4a 7fbd 4cb4 07be e8fb a93d
00000090: b176 b5bd 3696 ae3c 6dc6 fbbd f727 0ebe
000000a0: 61e7 08be 63f4 823d a6f7 b9bd bf79 ee3d
000000b0: f21c c5bd 1973 38be 11af 033c e0cc 1abe
000000c0: 7477 5abd 64df 9d3c 4362 1abe e9c8 26bd
000000d0: 231e 1bbd 5b9e 0bbe 356c 4abe 9fdd 10bd
000000e0: 28df 0b3d 9932 7dbd 7e7b 34be 06e0 29be
000000f0: 44df c93c 8fec f8b9 8fdd e23b 57bb ab3c
0.0857398 -0.032087807 -0.18499762 0.0062804134 0.25087374 -0.059011985 -0.093159676 0.032979403
0.010036064 -0.17297482 0.100131445 0.12855306 0.024922872 0.07122092 -0.027953135 -0.068855815
0.0019204902 0.013900528 -0.09959044 -0.18808496 -0.011790258 0.037742574 0.009752214 -0.0615568
-0.13039559 0.14018257 -0.021638433 -0.18654715 0.15064979 0.10962842 -0.031050676 -0.15368745
0.15497375 -0.062326726 -0.13252372 0.083000004 -0.08860529 0.02131186 -0.12293706 -0.13882433
-0.13369514 0.06394269 -0.09080438 0.11644315 -0.096246615 -0.18012656 0.008037345 -0.15117216
-0.053336576 0.01927156 -0.15076546 -0.040718947 -0.037870537 -0.13634627 -0.1976784 -0.035367604
0.034148365 -0.06181583 -0.17625234 -0.16589364 0.024642594 -0.00047478496 0.0069233845 0.020963354

advantage.fc2.weight f4 [64, 64]
00000000: d964 9dbd 584c d63d 2b53 6d3e 2dc9 f43d
00000010: 1029 9d3e 4845 2e3d 2aaf 9abc db7b 88bd
00000020: a762 1b3d ae9f 543d b870 28bd 0709 833d
00000030: 8f2b b7bd 5c78 403e 7765 e7bd 4a60 993b
00000040: 7b08 99bd 039b 353e 6413 273d 09f1 aabd
00000050: 0c84 9f3d 7438 40be 0167 ac3d 4d0f 7cbe
00000060: 4e0d 22be 6ab6 223d 836b 88bc d8eb 34be
00000070: c5be e83d df2e 8d3d ba84 42be 5fc4 02bd
00000080: 46a7 453b c573 3a3d 7488 913d aea6 2f3a
00000090: 4e63 79bc e5f4 b33d 42b4 06be 5916 11be
000000a0: 4e48 89bd 9aff 1d3e 7cb8 513e 89f8 20bc
000000b0: 9859 f1ba 1a61 2cbe 5cf0 18be 230f dc3c
000000c0: 5446 ec3b 9d42 97bd c766 bbbd 6de9 61bc
000000d0: 7597 a9bd 74e4 ffbd 3c54 ac3d 2e62 83bd
000000e0: 1cda 4bbc a8e5 31bd 0184 29be 568a b0bb
000000f0: 59bb 653d 2386 863e 3776 86bd 5ad6 dabd
00000100: d597 0ebe f910 373e 405b 69be 364d a83d
00000110: bf7e 0abe 6133 703e 7d4d 72be d064 adbe
00000120: 80fc 57bd 43ef b0be 9b79 fcbd 104c 0abd
00000130: 8610 91be 9fb5 9abe 1b1f d13d 9113 663c
00000140: aa1c 81be c48e 11bc 9f98 88be 6387 1fbe
00000150: 64b3 ad3d cb43 afbe 62bf f8be aabd c4bd
00000160: 8b48 99bd f057 babd 3140 233e b3be 0bbc
00000170: 33a8 633e 65bb 77be 658b 7c3e 01d7 d2be
00000180: 9bfb 343e 9eca 2abd ca0f 9cbe ca33 b8bd
00000190: 06e9 d33d 567a 53be 0ecd 2dbd c969 93be
000001a0: 2090 f1bd c939 9bbd 38c7 873d 78e2 48be
000001b0: 9985 ab3d 8187 cbbe fd4a 44be c5fc 483d
000001c0: d8bc a7be 9cd5 7abe dcce b5bd 4375 e63d
000001d0: 2c13 69bb a137 083e 1932 9bbe 4f57 68be
000001e0: dbb6 acbd 61e8 083d ebad 613e 29d8 843e
000001f0: 1498 a1be 18f4 b13d 2c6c 833d 9581 c4bd
00000200: 9777 92bd a051 09be 5e9f 433e 083f 883e
00000210: 14ae 23be 79cf 01be 580c dbbe cba6 2dbe
00000220: 25d9 3b3c 92bd 20be 0130 d33d 9037 0dbe
00000230: 2313 c03d 96c5 c93c 077f 203e a056 9dbd
00000240: 626b febd 7051 123d ab6f ce3c 8ecf 20be
00000250: 84bf 3dbe bfa9 8bbd b17b 80be e529 e13b
00000260: 768e d7bc 63dd 173e 0a86 a83e 7130 a0bd
00000270: 1d25 28be dbf5 183e 40cd 883d 2996 10be
00000280: b22d 98bd 62f4 a2bd 953b 20bd f797 693e
00000290: 729d 4bbd 4b85 ce3c fd4f 743d 9149 d2bd
000002a0: 7cec 7f3e 3762 20be 2d10 0f3e 62df 29be
000002b0: ad68 583e 5dba bcbd 41bc 673d 0436 633c
000002c0: 53b3 613a e9f4 0dbe 2d27 a93d 0bb4 b83d
000002d0: b9de b5bd f53c 73bd 2008 94be 98ad 2cbe
000002e0: c2bc 2dbd 6c1b 9abd d226 5d3e 50ec 813d
000002f0: 12e5 693e 8843 ef3d 5c56 ec3d e9e0 873d
00000300: fc5d 9c3a 2785 b93c e973 e03d 0385 8bbe
00000310: 4984 6abe dac3 8abe 9234 163e 3667 253d
00000320: 05ab 10be 6a59 dbbc 30df 01bd a2cb 1dbc
00000330: 83ae 55bd eaf2 d83d a91d 0f3e 924e acbd
00000340: f969 afbd 4ad3 763d 2d89 f4bd 597c 7bbc
00000350: fea0 03be 53c6 393e dd84 583e eb90 873e
00000360: d527 11bd 7791 3bbe 2e2c 6c3d 466e eebd
00000370: 6781 b73d 692c 4ebd b545 553e ccaa 02bd
00000380: e384 273e 496d 40be 34df 113e 8b06 3f3d
00000390: 1b0b babb 33b2 d63d 28af 943e 8026 863d
000003a0: d6db d1bd 6a13 c03d e5b4 0fbe 8643 3dbe
000003b0: 57b8 b73a 523c c73d 94da 60bd 6bdd cfbe
000003c0: b9fa a43c 1ad4 823d 3b3b 93be b9bc a3bc
000003d0: 086b 3ebd aed0 afbe caa6 adbd 1900 323d
000003e0: 51ea 9abd f609 cdbd 2aea f13d a988 d63d
000003f0: 7538 f2be 925a afbe 7feb 3abe a06f 043e
-0.07685251 0.1046378 0.23176257 0.11952434 0.3069539 0.04254654 -0.018882353 -0.066642486
0.03793588 0.051910095 -0.041123122 0.06398206 -0.08943855 0.18795913 -0.1129865 0.004680668
-0.07472321 0.17734914 0.040789977 -0.08346755 0.07788858 -0.18771535 0.08418084 -0.24615212
-0.15825388 0.039724745 -0.016652828 -0.17668092 0.113645114 0.068937056 -0.18995944 -0.031925555
0.0030159517 0.045520563 0.071061045 0.00067005574 -0.01522143 0.08786944 -0.131547 -0.14168681
-0.06703244 0.15429536 0.20480531 -0.00982488 -0.0018413542 -0.16833916 -0.1493544 0.026862686
0.007210532 -0.07385752 -0.091504626 -0.013788563 -0.08280841 -0.12494746 0.08414504 -0.06415211
-0.012442138 -0.043431908 -0.16554262 -0.0053875847 0.05608687 0.26274213 -0.065655164 -0.106854156
-0.13925107 0.17877568 -0.22788715 0.08217852 -0.13524912 0.234571 -0.23662372 -0.33865976
-0.052731037 -0.34557542 -0.12327882 -0.033763945 -0.2833292 -0.3021669 0.10211011 0.014042751
-0.2521718 -0.008884136 -0.2667894 -0.1557899 0.08481482 -0.3423141 -0.48583513 -0.09606488
-0.074845396 -0.09098804 0.15942456 -0.008529353 0.22232132 -0.24192579 0.2466255 -0.4117966
0.17674105 -0.041697137 -0.30480796 -0.08994253 0.1034718 -0.20652136 -0.042431884 -0.28791645
-0.11795068 -0.07579381 0.06629795 -0.19617641 0.08375091 -0.3975182 -0.19169231 0.049069185
-0.32761264 -0.24495548 -0.08877346 0.11252835 -0.0035564406 0.1330247 -0.3031166 -0.22689556
-0.084333144 0.03342474 0.22039 0.25946167 -0.3156134 0.08689135 0.064171165 -0.09595028
-0.07151716 -0.13410044 0.19103763 0.2661059 -0.15984374 -0.12676801 -0.42782855 -0.16958158
0.0114653455 -0.15697315 0.103118904 -0.13790727 0.0937865 0.02463035 0.15673457 -0.07682538
-0.124228254 0.035722196 0.025199732 -0.15704176 -0.18530089 -0.06819486 -0.2509437 0.0068714493
-0.026313048 0.14830546 0.32914764 -0.078217395 -0.16420408 0.14937536 0.06679773 -0.14119782
-0.07430591 -0.079567686 -0.03911932 0.22811876 -0.0497107 0.025210043 0.059646595 -0.10267938
0.24992555 -0.15662466 0.13971014 -0.1658912 0.2113368 -0.092152335 0.056576017 0.013867859
0.000860979 -0.13862957 0.08259425 0.090187155 -0.088803716 -0.059384305 -0.2891245 -0.16863096
-0.04241634 -0.075247616 0.2159684 0.06343901 0.2284129 0.116828024 0.11539909 0.06634695
0.0011929865 0.0226465 0.10959608 -0.27249917 -0.22902025 -0.27102548 0.14668491 0.040381633
-0.14127739 -0.026776034 -0.03170699 -0.009631069 -0.05216838 0.10593207 0.13976158 -0.084134236
-0.085651346 0.060260095 -0.11940227 -0.015349471 -0.12854382 0.18142061 0.21144433 0.2647775
-0.035438377 -0.18317209 0.05765932 -0.11642127 0.089602284 -0.05033532 0.20827372 -0.031901166
0.16359286 -0.18791689 0.14245301 0.0466371 -0.0056775934 0.104832076 0.29039884 0.06550312
-0.102470085 0.09378703 -0.1403385 -0.1848279 0.001401673 0.09728302 -0.054895952 -0.40598616
0.020139085 0.063881114 -0.28756127 -0.01998745 -0.04648879 -0.34338897 -0.08479078 0.043457124
-0.075642236 -0.100116655 0.118122414 0.104752846 -0.47308698 -0.34248787 -0.18253897 0.12933207

advantage.fc2.bias f4 [64]
00000000: 38f3 213d 36cc d7bd 7e98 e33c 05c3 9e3d
00000010: 301e 9f3d 15ea e6bc 7461 f0bc ffca 843d
00000020: d1a5 cebb ce06 143e 8afd 1e3e 456b 253c
00000030: 32f6 4dbd abc8 3a3c 3004 22bc a1bc fc3d
00000040: 8c80 ef3c a73e 8fbc 9c44 01bc 886f 5cbd
00000050: 1ed4 423c fe05 293e 0760 a8bc 3a30 90bc
00000060: 42f5 a0bd 9dea 2cbb 7777 503e 5682 79bc
00000070: 4778 fcbd b10d 143d 6df3 b33d e57c d0bd
00000080: b15f 3fbc 60c6 883d 6deb 5abc 114a cdbc
00000090: aaf8 ffbd b16c f03b 9e64 7f3d 8349 05be
000000a0: a4d3 17be c10d 5a3e 24b3 9d3c 443b 3fbd
000000b0: c246 06bd 49ba 7dbd 3266 f1bd 4fdc babd
000000c0: dbe3 353e c229 acbd a0ea 7abd dda3 9f3d
000000d0: 67d9 b7bd d49c e2bb 2a45 0a3c 6a35 9bbd
000000e0: f5b0 9cbd a08e 1ebe de38 b0ba 5ab3 d1bd
000000f0: bfbb c53d c275 a63d 31bb f43d 5058 94bd
0.039538592 -0.10536997 0.027782675 0.07752041 0.0776943 -0.02818779 -0.029343344 0.06484031
-0.006306388 0.14455721 0.15526405 0.010096376 -0.05028362 0.011400382 -0.009888694 0.123406656
0.0292361 -0.01748593 -0.007889893 -0.053817302 0.011891393 0.16506192 -0.020553602 -0.017601121
-0.07859279 -0.0026384958 0.20358072 -0.015228828 -0.123276286 0.03614587 0.08786664 -0.10180072
-0.011680529 0.06678462 -0.013361794 -0.025059732 -0.12498601 0.007337176 0.062351815 -0.13016324
-0.14826828 0.21294309 0.01925046 -0.04668738 -0.032782324 -0.061945233 -0.1178707 -0.09124052
0.17762701 -0.08406402 -0.061258912 0.07794926 -0.08977013 -0.006915668 0.008439342 -0.07578547
-0.076509394 -0.15484095 -0.0013444682 -0.10239287 0.0965495 0.08127929 0.119497664 -0.07243407

advantage.fc3.weight f4 [4, 64]
00000000: c883 d2bd e953 ce3e 68d2 33bd 410e 18be
00000010: fe4e 883d 7962 9bbd edd7 0e3e b007 89be
00000020: 0129 24bd a102 e8bd ac7c edbd e047 753c
00000030: e11c 9a3e 7390 28be e6b9 f3bd d842 343c
00000040: 8edc eebd eeb6 aebe d7c7 d5bd 0dff 75bd
00000050: e48f adbe f392 4bbd 91f5 ea3c 92b4 31be
00000060: d2e4 f1bc 4afd 6fbe 358a b0bd 75a4 48be
00000070: 9f54 963d db2f c9bc a977 a0bd 0e14 79bd
00000080: f384 833e 4526 493e 07ab 2bbd 3a5d 853d
00000090: d471 dd3e 973c eabd d949 b13c 8954 f73e
000000a0: 6508 abbe 2f74 3ebd 19ec cabd 1a55 e8bd
000000b0: e45c a63d 3ab0 ab3e f667 b5bd 209f a53e
000000c0: b941 0abe 90ea f7bd ef11 07bf 6392 e9bd
000000d0: 7ce8 e73e 033a 13bd c447 aa3d b291 afbd
000000e0: 336d 1dbe 76c4 12bd 6096 ef3e cf8e ef3e
000000f0: 43e0 c1be 8ea8 c03d 1f03 8b3e b810 cc3e
00000100: d021 3b3e 8d02 8fbe d242 263e f59d d43d
00000110: 4f88 82bd bff3 8f3e 51aa 0cbe 404f 9a3d
00000120: ed7a 39be c131 bb3d 6bb2 103e cb9a 0ab9
00000130: 18dc 81be ef25 953c b9cd 513d 6a9a da3d
00000140: 1381 eabd 8b8b ab3e a199 6ebd 4185 4c3e
00000150: 30cc df3e 2c81 6e3d c9b4 503d 13e2 4c3e
00000160: 32c9 9dba 7e7a 483d 75d9 f83d 5ede 0d3e
00000170: 9ac0 6a3e 14ed 213d 4c16 5c3d e295 233e
00000180: 6b53 b03d 378f e6be 17a1 653e bcb0 48be
00000190: 6371 78bc c095 5d3d 4808 0dbe 7b53 28be
000001a0: c20a fd3e de1f b63d f57e 81be 7c23 6c3e
000001b0: 80b0 71be fd7b c2be d2f8 153e aae1 c0be
000001c0: 7952 28bd d676 973e 7c12 af3e ec04 33be
000001d0: d40d 553e c43f a53d 8e9a 203e a40a a03b
000001e0: 6b22 a6bd e9e3 e2bc bbbc 39be 5db5 a3be
000001f0: 9c44 4e3e 9cfb 6fbe 5cd7 84be e648 54be
00000200: ed17 c8bd 577b 853e 5075 963e c3fb 103e
00000210: 21aa 823e d5a7 a8be 54a0 883e 3496 0a3e
00000220: ba70 a0bb dd3e 90be 26a9 0abe 0259 163f
00000230: 3411 5d3e 56a2 7ebe 1312 7ebe 9168 513e
00000240: 1586 603c 791c aebe e9fb 96bc 3720 c9be
00000250: b649 8c3d 9bd9 443b 66c6 4fbe be8b 0bbd
00000260: 444a 153e 2b92 bb3c af6e 97bd ab1d 07be
00000270: d7c0 743e 59ba df3e ca4f 743d 799e febe
00000280: 0ebb 5dbe e600 0c3c 76eb 163e d857 fa3d
00000290: 9d05 fdbe 9817 a6be 9e48 843d e7e4 a2be
000002a0: d6f0 923e be08 73bd 1368 eb3e f742 0f3e
000002b0: f304 b03d 0355 93be 9f42 cd3e e75e 433d
000002c0: 74e3 b13d 0918 ecbd 069a 423c b305 45be
000002d0: 20f9 efbe 73ff 8abc 8b50 86be 6bcb 283b
000002e0: f18d 1fbe e030 22bd b57f 9dbe 356b 1dbe
000002f0: 9d5d a4be eeda 26bd 9e67 cabe 6cee 0ebb
00000300: 60b3 723d f4be 8ebe fc3b 79be 1f8a 86be
00000310: b25f 4abd 6d45 093c f9a2 64bd 1b7c 01bc
00000320: fad7 9c3e 44a7 da3e 9ae3 1b3e 4d31 d2be
00000330: b381 87be cb32 8e3e 24b6 943e ac3c 9abe
00000340: ecd6 a53e 4105 e13e dc19 0f3e 45ca b43e
00000350: e3a3 27be f018 883e 72d6 593b ea51 2b3e
00000360: 6fef 46be 9075 3abe 5b19 08bd 88a3 5f3d
00000370: 9545 edbe 3050 d5be 9300 9abd b4d2 e63e
00000380: c40e 87be bf98 623e 668e 83be e34f 593d
00000390: f0dd fdbd 5880 303d 29cd b43e 46c4 1cbd
000003a0: 4cc2 a9be 00cd 8d3e c5de f73c 5279 a2be
000003b0: 7215 bf3d 4499 183e ffde 1dbe 97f6 ee3d
000003c0: 98bf 053e 248c 47be b123 483e 1f29 093f
000003d0: 7653 8abe ee0c 90bd 2d69 853e 4692 9a3e
000003e0: ae3e 393e 64ea a5bd 01a4 aebd b2a3 d2be
000003f0: bb4d 4e3e 9574 383e 5d6d 07be 5fb1 19be
-0.102790415 0.40298393 -0.04390183 -0.14849187 0.066556916 -0.075871415 0.13949557 -0.26763678
-0.040078167 -0.113286264 -0.11596045 0.01497075 0.30100158 -0.16461353 -0.11900692 0.011002265
-0.11663161 -0.3412394 -0.10438507 -0.06005769 -0.33898842 -0.04970069 0.028681548 -0.17354038
-0.029528055 -0.23436466 -0.08620111 -0.19593985 0.07340359 -0.024558952 -0.07835323 -0.06081014
0.2568737 0.19643505 -0.04191115 0.06511922 0.43250906 -0.11437338 0.021641659 0.48306683
-0.33404842 -0.04649752 -0.09908313 -0.11344357 0.08123186 0.33532888 -0.088577196 0.32347965
-0.13501634 -0.12105286 -0.5276174 -0.11404874 0.4529456 -0.035943996 0.083144695 -0.08572711
-0.15373687 -0.03583189 0.46794415 0.46788642 -0.3786641 0.09407149 0.2715082 0.39856505
0.18274617 -0.27931634 0.16236427 0.103816904 -0.06373655 0.2811565 -0.13736846 0.07534647
-0.18113299 0.09140349 0.14130561 -0.0001321837 -0.2536323 0.018206565 0.051221583 0.106739834
-0.114504 0.335049 -0.05825198 0.19972707 0.4371047 0.058228657 0.05095366 0.20008115
-0.001203811 0.048944943 0.12150852 0.13854358 0.22925034 0.039532736 0.0537322 0.15975145
0.08609661 -0.4503114 0.22424732 -0.19598669 -0.015163752 0.05409789 -0.1377269 -0.16438095
0.4942227 0.08892797 -0.25292173 0.23060411 -0.23602486 -0.3798522 0.14645699 -0.37672168
-0.041094277 0.29582852 0.3419379 -0.17482346 0.20806056 0.08068803 0.15683958 0.004884081
-0.081120335 -0.027696567 -0.18138401 -0.31974307 0.2014336 -0.23435825 -0.25945556 -0.20730934
-0.097701885 0.26070663 0.29386377 0.1415854 0.25520423 -0.32940546 0.2668482 0.1353386
-0.0048962506 -0.2817296 -0.13541088 0.58729565 0.21588594 -0.24866614 -0.24811582 0.20450045
0.013703843 -0.34006098 -0.018430667 -0.3928239 0.06849997 0.003003693 -0.20290527 -0.034068815
0.14579111 0.022896847 -0.07394158 -0.13194911 0.23901688 0.4369686 0.059646405 -0.4973028
-0.21653387 0.008545136 0.14738259 0.12223786 -0.49418345 -0.32439876 0.06459163 -0.31815264
0.28699368 -0.05933451 0.4597784 0.13990389 0.08594694 -0.28775796 0.4008989 0.047697928
0.08685961 -0.11528022 0.011877542 -0.19240455 -0.46869755 -0.01696751 -0.26233324 0.0025756012
-0.1558149 -0.039597392 -0.30761495 -0.15372927 -0.3210267 -0.04073613 -0.3953218 -0.002180959
0.059253097 -0.2788006 -0.24339288 -0.26277253 -0.04940767 0.008378369 -0.055819485 -0.007903124
0.30633527 0.4270574 0.15223542 -0.4105324 -0.2646614 0.27773127 0.29045212 -0.30124414
0.32390535 0.4394932 0.13974708 0.3531057 -0.16371112 0.26581526 0.0033239392 0.16730466
-0.19427274 -0.18208909 -0.033227306 0.054599315 -0.4634215 -0.4166274 -0.07519641 0.4508263
-0.26378453 0.2212858 -0.2569458 0.0530547 -0.12395847 0.04309115 0.35312775 -0.03827312
-0.3315605 0.27695465 0.030257592 -0.31733185 0.09330262 0.14902216 -0.15417098 0.11668127
0.13061368 -0.19487053 0.19544865 0.5357837 -0.270168 -0.07033716 0.26056805 0.30189723
0.18090317 -0.08101347 -0.08527375 -0.41140515 0.2014684 0.18013223 -0.13225313 -0.15009068

advantage.fc3.bias f4 [4]
00000000: 1c4f 32be b029 813e 647c 6bbe 6a0c c63d
-0.1741299 0.25227118 -0.2299667 0.096703365

aggregate.weight f4 [4, 5]
00000000: a55a e3be b01d 92be 7a57 3b3e 9788 16bf
00000010: 1548 42bd c4db bcbe be69 0bbf 0efb 17bd
00000020: ba85 81bd 36b8 3e3e 1956 c4be 9cc3 7e3e
00000030: 6e87 e4bd bad1 5abe 434b 2b3f f955 95bd
00000040: db4f f2be af3a f03e d18a 5dbe 70e4 573e
-0.44405094 -0.28538275 0.18295088 -0.5880217 -0.047432024 -0.36886418 -0.54458225 -0.03710466
-0.063243344 0.18624958 -0.38346937 0.24879307 -0.11158644 -0.21369067 0.66911715 -0.072917886
-0.4732655 0.46919772 -0.21634986 0.21083236

aggregate.bias f4 [4]
00000000: c448 8f3e 030a 9c3e 5f86 d83e 4019 363d
0.27985203 0.30476388 0.42290017 0.044457674
