model.pt (torch_old, 56221 bytes, 13 tensors)

value.fc1.weight f4 [64, 37]
00000000: b3be e53d 2ec2 53be f297 543e 6936 b1be
00000010: d0a6 4e3d 1f82 6e3e 7d7b 153d 4c5d bfbe
00000020: d96e 5bbe 29cd 09bd 938a 59bc f09d 253e
00000030: 0f32 bfbe 5aa2 46bf 54f0 8dbe 752a 30be
00000040: dafd 723e 985d 8d3e cc83 e3be 303e 54be
00000050: abe3 373e 01e4 00be 5c2a 353d 3424 a1be
00000060: 51c5 abbe e249 24be 0f29 cd3e 1af9 f4be
00000070: c6c2 92bc f2bd e3bd 1f17 85bd 36d8 b8bd
00000080: 2403 f43d 1dda 563e 107b 8cbe ab72 6ebe
00000090: 491a a9bd 812d 953d cd0b d63d 452b 493e
000000a0: 45e9 1bbe b95f 4bbf b0a4 4cbd dcb6 9bbd
000000b0: 7a83 a13e 12d1 52bf 5053 2cbe 8c63 99ba
000000c0: c80c 553d 35f3 2f3e 7bb6 a93b ba82 9abe
000000d0: 503f d1bd 7b9f 3cbd 31ca cd3d 0aa5 0c3e
000000e0: fd3b fbbe 59a4 f23d c7bb 9d3d 4d54 38bf
000000f0: f7d6 c4be 695a 7fbf 1c66 b6bc 233a e1bd
00000100: 2360 e4bd f883 833d 31d3 4ebf f3fe 7dbd
00000110: dfed 0f3e 057a f13c 66df cf3e ff8f fc3d
00000120: f80f 9abe 9f4a 6b3d 4e56 993e e80a 9e3e
00000130: cef5 a8bd 5fa0 983d 3a42 a63e 8c85 87be
00000140: d838 10bf fba8 9f3e 3fc9 a03d 159e febe
00000150: 26c2 e53b ed32 1bbd 1a03 7abc b367 a63c
00000160: 575f f03e 1969 40bc 0f11 53bb 70d6 533e
00000170: f08b 6c3e 916c 7ebe a1ec e9bd 3f0b e2bd
00000180: 8e15 263e b710 f3bd 828b 9e3e cbb6 e1be
00000190: 82d5 b03e f1cd 583e df6b dbbe 6979 88bb
000001a0: 438f b3bc c27b 0b3c 3e0d 84be 8904 a8bd
000001b0: 8fe2 0d3e aeec 4abd fd99 38be 979f 7d3e
000001c0: cb13 75be a361 46be 2c87 82be 6f27 f2be
000001d0: 5860 fcbc fd94 0cbf 7a77 18bf 4f03 cdbe
000001e0: afa7 8bbf e4f8 943e 5a83 12bf 3ceb 80be
000001f0: 7162 1abf f253 32bf 4f1b 8c3d a87b e2be
00000200: 40aa 16bf 9a74 6fbe 0fa5 30bf b53c e53d
00000210: 5a5a c1bd be49 e4be 699f 613d fa88 aa3e
00000220: 6460 fb3d 5729 083e 14b8 26bf 566d 863d
00000230: 0981 e2bc f439 813d 864a 6d3d b68e 8bbd
00000240: 55d3 403c 2712 113d 3795 ec3d 480e 43bc
00000250: 9f01 2abe 747c 7ebe 6cce 08bd 5bb9 263d
00000260: d7f4 093e 3912 683e 0d17 9f3e b59c 03bf
00000270: 5d57 1abe eb2d 48bf bc80 833e 2087 be3d
00000280: 8d1a 8bbe 8723 90be 1756 1abf b96d 72be
00000290: 76c7 13be 7856 883d 81bb 843e 9927 103e
000002a0: 3ae0 a2bd b88b b0bd e3aa fa3d 3eed 3b3d
000002b0: 968c 113f c2a5 7c3d 3b3a fabd 7395 153e
000002c0: 33e3 133c 995a ea3e 2172 473c 4199 993c
000002d0: bc63 eb3d 945a 403e 2603 df3e bff9 043d
000002e0: ace5 003d 3aca 8b3c fe37 4a3e bcf9 37bd
000002f0: 3333 ecbe 47bf 3b3e 609b 16be d7bc da3e
00000300: 916d a23d b327 123e f400 0cbf c022 813e
00000310: e404 8bbe e046 0ebe 3182 c83d 6db3 7a3c
00000320: 6a32 8abe daf0 353e dae0 f33d ec2f 523e
00000330: fd43 28be f811 5c3e 3b86 7dbd 7ead 553e
00000340: e902 4ebc ced5 533e 9557 f8bd 98eb 65bd
00000350: c106 943e 42e4 5d3e 0935 b1bd a2ae 42bd
00000360: 4864 f6bd fddf 7b3d 447f 4f3e 2992 8ebf
00000370: 9fba 3e3d 4df8 c9bd 56ce 3e3d 0045 2b3c
00000380: 868f b13d 79a5 ebbc 1528 f2bd 42b9 79bc
00000390: 8be0 363e 5bb9 efbc c745 503e 28e7 493e
000003a0: 2576 3b3e 44d0 c63d faf3 3b3d d2c9 ed3c
000003b0: cd38 79bc 9bc1 15bd 9fab e13c 1459 e1bb
000003c0: b9cd 123e 943b d63d 8351 7cbc e27c 83ba
000003d0: 6c2c 22ba 5661 5a3e d912 323e 3aab ecbd
000003e0: 03a0 ba3d d41b 0fbd 7ec6 c83b 311a 1abc
000003f0: e317 de3e b23d cbbe 4caa 11bf a4fb 02bf
0.112180136 -0.20679542 0.20761088 -0.34611824 0.050452054 0.23291825 0.03649472 -0.37375867
-0.21429004 -0.03364292 -0.013277668 0.1617353 -0.3734288 -0.7759148 -0.27722418 -0.17203696
0.23729649 0.2761047 -0.4443649 -0.20726848 0.17957942 -0.12586977 0.04422985 -0.31472933
-0.33548978 -0.16043809 0.40070388 -0.478463 -0.01791514 -0.111202136 -0.064985506 -0.09025614
0.119146615 0.20981641 -0.2743764 -0.2328593 -0.082569666 0.0728407 0.104514696 0.19645412
-0.15225704 -0.79442936 -0.049961746 -0.07603237 0.3154562 -0.82350266 -0.16828656 -0.0011702641
0.052014142 0.1718262 0.005179224 -0.3017786 -0.10217154 -0.04605053 0.100483306 0.13734832
-0.49069205 0.11847753 0.07701831 -0.7200363 -0.38445255 -0.9974733 -0.022265486 -0.10997417
-0.11151149 0.064216554 -0.80791 -0.062010717 0.14055584 0.029477129 0.40600127 0.123321526
-0.30090308 0.05744421 0.29948658 0.30867696 -0.082500085 0.07452463 0.32472402 -0.26469076
-0.56336737 0.3118361 0.07850885 -0.49729982 0.0070116697 -0.037890363 -0.0152595285 0.02031312
0.4694774 -0.011743807 -0.0032206213 0.2068727 0.23100257 -0.24846102 -0.114220865 -0.11037301
0.1621916 -0.118684225 0.3096581 -0.44084772 0.34537894 0.2117231 -0.42855737 -0.004164864
-0.021918898 0.008513393 -0.25791353 -0.0820399 0.13855956 -0.04954212 -0.18027492 0.2476791
-0.23933332 -0.19373183 -0.25493753 -0.4729571 -0.030807659 -0.5491484 -0.59557307 -0.40041587
-1.0910548 0.29096138 -0.57231677 -0.2517947 -0.6030646 -0.6965934 0.06841146 -0.44234967
-0.5885353 -0.23384324 -0.6900186 0.111932196 -0.09441061 -0.4458751 0.055083666 0.3330763
0.122742444 0.1329702 -0.6512463 0.06563823 -0.02764942 0.06309882 0.0579324 -0.06814329
0.0117691355 0.035417702 0.11551898 -0.01190526 -0.16602181 -0.24852163 -0.033399984 0.040704112
0.13472305 0.22663201 0.31072274 -0.5141099 -0.15072389 -0.78195065 0.25684154 0.09303117
-0.27168694 -0.28152105 -0.6028761 -0.23674668 -0.14431557 0.066571176 0.25924304 0.14077605
-0.07952924 -0.08620399 0.12239625 0.04588055 0.5685514 0.061681516 -0.12218138 0.14607792
0.0090263365 0.45772246 0.012173207 0.018749835 0.11493632 0.18784553 0.4355709 0.03246474
0.031469032 0.017064203 0.19747922 -0.0449159 -0.46132812 0.18334685 -0.14707708 0.42722198
0.079310544 0.14272957 -0.54688954 0.25221825 -0.2715217 -0.13894224 0.09790457 0.0153015675
-0.26991588 0.17767659 0.119081214 0.20526093 -0.16432185 0.2149123 -0.06189559 0.20866963
-0.012573936 0.20687029 -0.1212608 -0.056132883 0.28911403 0.21669105 -0.08652694 -0.047529824
-0.12030846 0.06149291 0.20263392 -1.1138355 0.046564694 -0.09861813 0.046583496 0.010453463
0.08669953 -0.028765427 -0.11824051 -0.015241923 0.17859094 -0.029263189 0.20339118 0.19717085
0.18306787 0.09707692 0.04588697 0.0290269 -0.015211296 -0.03656159 0.027547656 -0.006877074
0.1433629 0.104605824 -0.015400293 -0.0010031725 -0.0006186429 0.21326193 0.17390002 -0.115560964
0.09112551 -0.03493865 0.0061271777 -0.009405659 0.433776 -0.39695507 -0.5690048 -0.51165223

value.fc1.bias f4 [64]
00000000: 3aa7 f03d f476 31bd af44 31be a108 c4bd
00000010: 33de 143e 26bd ed3c 9fcf afbd 031b 253d
00000020: af1f d03c 330b 35be 66b5 563e b35a 623e
00000030: e919 303e 7613 bf3b 0199 dfbd cfcb 8c3d
00000040: 5160 303d 88ef 11bd 128a 8ebd 6d66 9bbe
00000050: eeff 0cbe 2260 ac3c c9aa e03c 7072 73be
00000060: 1054 c2bd 1bbc 663e 0183 4dbd 6742 d4bd
00000070: d944 353e 42f5 b9bc 6c46 e0bd 4649 1bbd
00000080: c453 4b3e 44ab 0c3d 3772 1fbe e76d 7f3d
00000090: 573d 4bbe f55b 59bd 6405 38bd 2b52 b7bd
000000a0: 97fb 4cbd 5607 ad3c 9f87 dbbd 5f43 5e3d
000000b0: aa20 eabc fc54 1cbe 347a c83b 8b22 11be
000000c0: ecd3 27be cc14 53bc 4eac 90bd 39b8 b73d
000000d0: e0b0 983d 9b53 1dbd 7358 9cbe adbe 20bd
000000e0: 4663 fb3d f5f8 1ebe 154a 27be f575 dcbd
000000f0: 58b8 11bd 6119 953d a59e 173d 9c66 863c
0.11750646 -0.043326333 -0.17311357 -0.09571958 0.14537887 0.029020857 -0.085845225 0.040308964
0.025405733 -0.17680053 0.20967636 0.22104912 0.17197384 0.0058311773 -0.10917855 0.06874811
0.043060604 -0.035628825 -0.069599286 -0.30351582 -0.13769504 0.021041933 0.027425187 -0.23774123
-0.0948869 0.22532694 -0.050173763 -0.10364228 0.17702045 -0.022699956 -0.10950932 -0.037911676
0.19856173 0.03434302 -0.15570913 0.06236067 -0.19847618 -0.053066213 -0.044927016 -0.08951219
-0.050044622 0.021121662 -0.10719227 0.05426347 -0.028580029 -0.15266794 0.0061180834 -0.14173333
-0.16389436 -0.012883376 -0.070641145 0.089706846 0.07455611 -0.03840981 -0.3053623 -0.039244343
0.12274794 -0.15524657 -0.16336854 -0.10764686 -0.035576195 0.07280231 0.03701653 0.01640635

value.fc2.weight f4 [64, 64]
00000000: 578c 6ebe e35c 843e 38f0 d5be 6b20 813d
00000010: 1604 163d 7dac 56be 3bf5 86be 4162 963e
00000020: eb14 0d3e 5e37 13be 0209 e9be b11d 2dbe
00000030: 9cc2 96bd dbd0 81bd f0ac 133d b121 1b3e
00000040: d686 44be bb8a c8bd 2218 c4bd fb66 0bbe
00000050: 8284 b5bc 7e62 233e 86f4 cc3e 4088 70be
00000060: 1dc1 d2be 5e6f ed3d 9f8b b93e b056 7bbd
00000070: 4c29 5b3d 1016 d83d 1fb4 31be 7d41 afbe
00000080: 5c5b f43d a77a e1bc de1f e9be bdea 963c
00000090: ceca f7be dd52 4ebe 6262 a43e 8230 bebd
000000a0: 0a16 633d c777 4cbe 10e0 783d 54ac fcbc
000000b0: eed6 89bd 3e77 02bf f4b3 81be 8b34 973d
000000c0: 2b2b 35bd b4a5 a8bd a2c8 c93d 435d 90be
000000d0: c675 16be 19f5 3dbe f5ee 483e 02d3 acbe
000000e0: 1c40 c4bc 09ac 523c 00b4 513e dd0f bc3e
000000f0: 2b8b e43d 45fc 883e 5b51 593d 99c8 d7bd
00000100: 22ee f3bd a1aa 863d 9c75 7cbd c4f5 763e
00000110: 67fc 83bc cf3c 953c cae3 43be 950a c53d
00000120: 3880 febd 0b41 953d 76c0 393c 7d0a 2f3d
00000130: e358 0c3d 6e38 633d 9abd 15be 7f17 2d3c
00000140: 5447 20be 2608 023d 772f dbbd f44e 29bc
00000150: bb60 03bb 0229 81be 49d6 8dbd d38c d03c
00000160: 315c 1abe eb1f f23d b5a1 9fbc 2959 a5bc
00000170: 45cb dd3c 2ecc 10be b68c 32bd a858 1abe
00000180: 1e96 183c 855e 7c3c a7f9 1f3d b540 2fbe
00000190: 3e4c 313d 9c49 2cbd 061e 36bc 8207 3fbe
000001a0: 4c73 59bd aaf4 04bd 8a77 033d 7509 18be
000001b0: afdc 24be dfa5 0cbe 96b1 72be 4c0a 59be
000001c0: 7764 0dbe 485e d0be 4033 dfbd a1df 2d3d
000001d0: 750b 2ebd 1b44 b5bc ceee 7d3d 0305 10bd
000001e0: 361b 4bbe 7ab0 7cbd bebb e23d c56a 813d
000001f0: 93a6 24be ea4a 12be 48bc d2bd 22bb 603d
00000200: 5781 903e fd96 70be 7bff dbbd 2f19 4dbd
00000210: 9c39 c9bc dfa7 ebbd d73d edbb f880 1a3d
00000220: 85f7 083e 0a18 1bbd 2716 323e defe c23d
00000230: 23ae 913e 3ff2 6abd 8459 dbbe 6c8a 563e
00000240: 6da6 50be 9c33 77bd e25d bc3d a30b eebe
00000250: 9e7f e3bc 099d e93d dc7e db3b daa4 ce3d
00000260: 23a9 513d c6b0 6e3e 23e5 ce3e 3077 c23e
00000270: 9227 4f3e cde9 3a3e 013b 073f 1032 04bd
00000280: 7b02 f2bd 054a 933e 60ac 1bbf c19e 25bc
00000290: 319f 763e 6694 803e 0c7d 9c3e 5a12 96be
000002a0: b221 b33d 2ea3 8dbc 41aa fe3d 3838 2dbe
000002b0: ef5e aa3d 2b4e a0bc 31a4 cabd 1ff6 1cbe
000002c0: ceb1 c5bd 4ebc 5bbe 65fa 553e 6e14 b0bd
000002d0: c6db 25bc 099f 3fbe b39e 83be c427 373d
000002e0: e23b 0dbe 0b76 0abe bb3a 263e 98ba b73e
000002f0: 108a d9bc b7db e4be e99f 1d3e 0fe1 973e
00000300: fae9 8abe 37e7 eabe b10d fb3d 5262 c3be
00000310: 7506 8c3d 42bb 28be 677e 8fbe 5e72 513d
00000320: cbfb c5bc dade 973d 7e3f a3be ca2a 833e
00000330: bca9 00be 6719 7a3d 3e30 76bd 2b59 843e
00000340: 6a88 99be 8df5 56bd 8374 ccbc c597 32be
00000350: cb67 b03d 72c7 913d 7906 883c 346c 19bd
00000360: ff92 713e c2e8 f9bd 2933 2bbe 7a6e 19be
00000370: 0f9a 453d 2fd8 93be f6e5 b03d 12b5 b4ba
00000380: a472 b1bd 88e5 febe 98a0 1c3e c3e2 033f
00000390: bd0d e7bd 87c4 b3bd cc2d 813e 083f 28bc
000003a0: 4f67 39be f81a 9e3e 76d6 29be 398b 6bbe
000003b0: 88b5 18be 4dde dbbc 4d07 57bd eff5 5a3e
000003c0: afd7 6ebd 52dc bbbe 5623 fd3d 099b ce3d
000003d0: 5962 b03d 24df fcbd ae80 f73d 0d69 4e3d
000003e0: d26f b1be aa3b c2be 27ff 87be e17d 973e
000003f0: 8eff eebc 3c24 2bbf 3767 14bd da64 eabe
-0.23295723 0.25852117 -0.41784835 0.06305011 0.03662499 -0.20964237 -0.2635897 0.29371837
0.13777511 -0.1437659 -0.45514685 -0.16905858 -0.073613375 -0.06338664 0.036053598 0.15149571
-0.19192061 -0.09792086 -0.095749155 -0.13613503 -0.022157911 0.1595554 0.40030307 -0.23489475
-0.4116296 0.11593507 0.36239335 -0.06136197 0.05350618 0.10551083 -0.17353867 -0.3422965
0.11931488 -0.027524306 -0.45532125 0.018422479 -0.48396915 -0.20148797 0.3210631 -0.09286596
0.05544094 -0.19967566 0.060760558 -0.030843891 -0.06730448 -0.509632 -0.25332606 0.07383069
-0.04423062 -0.0823473 0.09852721 -0.28196153 -0.14693365 -0.18550529 0.19622405 -0.33754736
-0.023956351 0.012858399 0.20478821 0.36730853 0.11159357 0.26754966 0.053056102 -0.10536308
-0.119106546 0.06575514 -0.0616356 0.2411719 -0.016111566 0.018217472 -0.19129863 0.09621159
-0.124267995 0.072877966 0.01133739 0.04273461 0.034264456 0.055473737 -0.14623109 0.010564684
-0.1565221 0.031746052 -0.107024126 -0.010333765 -0.002004667 -0.252266 -0.06925637 0.025457775
-0.1507423 0.11822494 -0.019486288 -0.020184116 0.027074466 -0.14140388 -0.043591224 -0.15072882
0.0093131345 0.015403395 0.039056446 -0.17114528 0.0432856 -0.042062387 -0.011115557 -0.18655208
-0.05308847 -0.032459892 0.032096423 -0.14847358 -0.16099809 -0.1373515 -0.23700556 -0.21195334
-0.13807856 -0.4069693 -0.10898447 0.042449597 -0.042491395 -0.022127202 0.06199532 -0.03516103
-0.19834599 -0.06169174 0.11070965 0.06319193 -0.16079168 -0.1428639 -0.10289818 0.054865964
0.28223678 -0.23495097 -0.107420884 -0.050072845 -0.024563603 -0.11506628 -0.007240038 0.03772065
0.13375671 -0.037864722 0.17391263 0.09521268 0.28453168 -0.05735993 -0.42841733 0.20951241
-0.20375986 -0.060351953 0.09197594 -0.46493253 -0.027770814 0.11406905 0.0066984724 0.10090037
0.051186692 0.23309621 0.40409192 0.37981558 0.20229939 0.1825325 0.5282441 -0.032274306
-0.11816879 0.2876741 -0.608099 -0.010108651 0.24084164 0.2511322 0.30564153 -0.29310876
0.08746661 -0.017289724 0.12434817 -0.16915977 0.083188884 -0.019568523 -0.09894598 -0.15328263
-0.09653054 -0.21458551 0.20896299 -0.08597647 -0.010123199 -0.18713011 -0.25707015 0.044715658
-0.13792375 -0.13521592 0.16233341 0.35884547 -0.026555091 -0.4469888 0.15393032 0.29663894
-0.27131635 -0.45879528 0.12258471 -0.3816095 0.06837169 -0.16477683 -0.28026125 0.05113446
-0.024167916 0.074155524 -0.31884378 0.25618583 -0.12564749 0.06105938 -0.0601046 0.2584928
-0.29986888 -0.05248027 -0.0249579 -0.17440708 0.08613547 0.07118119 0.016604649 -0.037456706
0.23591231 -0.12202598 -0.16718735 -0.1498355 0.048242625 -0.28875872 0.086376116 -0.0013786873
-0.08664444 -0.49784493 0.15295637 0.51517886 -0.11281917 -0.08777719 0.25230253 -0.010268934
-0.18105815 0.3087995 -0.16585717 -0.23002328 -0.14912999 -0.0268394 -0.052497197 0.21382879
-0.05831116 -0.3669153 0.123602554 0.10088164 0.08612508 -0.12347248 0.120850906 0.050393153
-0.34655625 -0.37936145 -0.26561853 0.29588225 -0.029174592 -0.66852164 -0.036231246 -0.4578007

value.fc2.bias f4 [64]
00000000: c05a adbd a273 4dbe dfd0 64be cf0d ca3d
00000010: 30cb 173e e3be f0bd 3b9f 87be 47c0 4f3e
00000020: dedc 6fbd 4246 ee3d 2487 093e 6f61 b3bc
00000030: 5e3d bf3d bbf6 c0bd be31 4abd 9eec c33d
00000040: ebe2 903d af0c 1ebe 8316 b6bd 0e08 21bc
00000050: fcd8 213c 6a05 583e fb0d 89bd 56af 46be
00000060: 9e0d 83be 8ebe 583e 38a1 af3e 5773 043d
00000070: 6c2f 4bbe 38b5 b4bc 189a 393c 145d 8bbe
00000080: 6886 a53c ba5d 5e3d c53e 0ebe 6c1b f0bd
00000090: e1aa 12bd 1eb1 9d3d 540d ae3d 8d08 59be
000000a0: 08a6 3ebe e7cc 16bd bcb2 fbbd d4f0 d3bd
000000b0: 8c86 63be f6fe ebbd e0c4 e2bd b522 cebd
000000c0: 94fc dc3e 6309 b7be 5817 9a3c e90d 863d
000000d0: 492f b3be 59be fcbc 1790 6cbc b22f 8bbe
000000e0: 810f cebc 9503 0d3e af73 6bbc 2500 d4bc
000000f0: 7c0c aa3e cc74 573d 1cda 143e 96a8 71be
-0.08464575 -0.20063642 -0.22345303 0.09865915 0.14823604 -0.11755159 -0.2648867 0.20288192
-0.058560245 0.11634494 0.13430458 -0.021897046 0.09337877 -0.0942206 -0.049363844 0.095666155
0.07074531 -0.15434526 -0.088910125 -0.009828581 0.009878393 0.21095815 -0.0669212 -0.19402823
-0.25596327 0.21166441 0.34302688 0.03233656 -0.19842309 -0.022059068 0.011328243 -0.2721945
0.020205691 0.054288603 -0.13891132 -0.1172398 -0.035807494 0.07699798 0.08498636 -0.21194668
-0.18618023 -0.036816504 -0.1228995 -0.10348669 -0.22219294 -0.11523239 -0.11072707 -0.100652136
0.43161452 -0.3574935 0.01880996 0.06545622 -0.34997013 -0.030852484 -0.014438651 -0.27184826
-0.025153877 0.13770898 -0.014370843 -0.025878975 0.3321265 0.05260162 0.14536327 -0.23599467

value.fc3.weight f4 [1, 64]
00000000: f82d 13bf 8293 e63d cd9b 303e 03b1 45be
00000010: 213e 803e bb3e 7cbe 139b 933e 4298 e1bd
00000020: 4349 213e faef b8be 4444 babd 70a4 623f
00000030: 4449 a3be 51ba 5c3f 3a29 cbbe 52e3 4fbe
00000040: cf33 7cbe bb94 483e 2633 c6be 4d3b 923f
00000050: 1dca b43d 88c7 91be 359d aa3e b0b3 e3be
00000060: 3d7a f4be ee1a 54be 6a91 3dbe 1ec4 c8be
00000070: 8b93 9d3e 343b 91be 9fc3 40bf 9427 043f
00000080: f189 ee3e 8acf 1c3d ab58 3f3e 0d2c bbbe
00000090: 0fa1 76be e8e3 61be 29a9 4c3f 6cf2 263f
000000a0: 68cf 913e 465c 173f 6ec9 d33e fcc4 9d3e
000000b0: cd5d bf3e 322f 6a3f 9263 593f babe 913f
000000c0: 1150 48be 7308 043f 7a60 30bd d95f aa3e
000000d0: ead9 963e db11 e7be ce3f 183e e336 2c3f
000000e0: 18a7 12be 4b54 3fbe 65b1 a63f e6ac 8d3e
000000f0: eb99 42be 5b60 483e f7dd 953e ee2a d43e
-0.5749202 0.11258604 0.17246933 -0.19305806 0.250474 -0.24633305 0.2882925 -0.11015369
0.15750603 -0.36120588 -0.09095052 0.8853216 -0.31891835 0.86221796 -0.3967989 -0.2030156
-0.24629138 0.19587986 -0.38710898 1.1424347 0.088276125 -0.28472543 0.33323064 -0.44473028
-0.4774951 -0.20713398 -0.18512502 -0.39212126 0.3077663 -0.2836548 -0.75298494 0.5162289
0.46589616 0.038283862 0.18686168 -0.36557046 -0.24084876 -0.22059596 0.7994562 0.65213656
0.2847855 0.59125173 0.41364616 0.3081435 0.37376252 0.91478264 0.8491756 1.138633
-0.19561793 0.5157539 -0.043060757 0.3327625 0.2946313 -0.4513081 0.1486809 0.6727125
-0.14321554 -0.18684499 1.3022887 0.27670974 -0.19004028 0.19568007 0.29270908 0.41439003

advantage.fc1.weight f4 [64, 37]
00000000: e766 23be 5495 5c3d c6fa 2d3c 2c91 593d
00000010: 65b8 0abc 0629 a03d 4b25 23bd c589 3f3e
00000020: 61f0 ccbe 05c6 733d d081 94bd f873 923c
00000030: 6de8 96be d995 e0bd d0ba 0c3e c4a1 533c
00000040: ce15 bf3d 0fca 403d 31cf 12bf f51d 11bf
00000050: 600d 39be becd e53d 6e0f 493d fab4 4b3e
00000060: 29d1 98be 7522 f83d 4cef 783e ca9b 60be
00000070: c7c1 29bf 8701 cebe 2db0 04be 3c81 7cbd
00000080: 2db9 61be 2784 b63e 6be0 333e 8244 47be
00000090: aefb e7bc 42d4 c23d c4a4 373e 9a83 793d
000000a0: 792b 143d c64d 3fbe f944 bc3e cf9a a0be
000000b0: 2cf5 b1be b777 d2be 8a98 8abf 648c 883d
000000c0: fd34 d43d 2372 bd3b 7033 13bd cd03 3a3e
000000d0: 315f 573e 9400 01be 6035 a9bc 9cca 7b3e
000000e0: 85c7 cb3e 32fe 62bd c678 a0bd 807e d3bd
000000f0: 8f4f 943d 53b7 02be 3019 24bd cbb9 843d
00000100: 7ac3 cf3c 7223 8a3e e895 6e3e fc5d 9a3c
00000110: 6c17 043e 8a8a 683d aeb8 063e 5702 be3d
00000120: f3cc eebc 40ea 55bc 6fae 03bd 9b0d ae3b
00000130: 604f 343e e918 1abe 2c90 643d 4679 443d
00000140: 0470 26bf 7705 b33e 6b0a ebbe 6c39 ebbe
00000150: 4aa5 2ebe 3fda 7ebd c779 5bbe ed1e 6f3e
00000160: 9c3e 913e 746d 47bf 0fd9 413e efce 423e
00000170: de6a 34be 22f6 7abd a3b8 32bf ec3e 043e
00000180: 2124 cc3d 81a5 f4bd 0c1d 3cbe 3bb3 263c
00000190: e614 df3c 991b 273e ad69 22be c3a4 14bc
000001a0: b0c1 dabd 4dbb 98bd 229d 73bd 4496 3bbf
000001b0: d870 37be 906c 2f3e befc 023d a8d4 0c3e
000001c0: d1ba 1e3e 3e5d ad3d 309a d83d 9d21 22bd
000001d0: 8b39 b13d ac35 773c 1a87 913d 6029 a63d
000001e0: e775 343d a040 dcbb 2f52 a83d 1711 413d
000001f0: 01a7 a63d f359 a63d 6719 8bbc 2761 a13b
00000200: 273a 0cbb 57b6 6bbc befa 4ebb 0721 cb3d
00000210: 8cf5 6f3d a4cb fe3d d2e3 2b3e b50f bd3d
00000220: 1fa1 053e d6c9 963d 1a05 f63d e48f 113e
00000230: 743d 813d ada1 d43e 3ef6 e7be 823a 28bf
00000240: 6032 4dbf bc9a 35c0 72a4 07bd 934a 91bb
00000250: a4fd 61bd fdd9 4abd 3d51 acbd 2a65 26bd
00000260: b3e4 f23c e9c9 073f 385b 13bf 22c1 63bf
00000270: f3f8 7dbf 9a79 1bc0 4869 b43c 9cc3 1e3d
00000280: 4809 0e3c a2bb 773d 2700 5ebd 2eab 61bd
00000290: bd98 9e3c bc75 253d 610c 0b3d f719 2e3e
000002a0: 4a78 de3b 6e1d 823d e9a0 993d 8451 c23d
000002b0: 639f bc3d 0450 f83d d451 513d da98 9c3d
000002c0: aba6 613e f45e 553d c727 263e af6b b0bd
000002d0: da30 2e3e c6e9 813e b558 563e 6a62 fb3a
000002e0: cbad b13c b408 353e 24bd dfbe 229f cdbd
000002f0: 4e20 bfbe 9839 40be 5cf9 3bbd 2445 d5be
00000300: 0d55 183e 23e1 b0be 8f9e abbf 778a 39bf
00000310: 5ec6 cf3d c1c3 8ebd a326 0cbe 2572 fdbe
00000320: b469 e73c 5de5 89be fd0b 39be 5efc 86bd
00000330: f1c7 c3be 16fd 34be e0be 2fbe 32b8 c03d
00000340: b824 f03e d638 40bf 3868 95be 7315 07bf
00000350: b961 cc3e 676b 11bf 92d7 c2bf 3c7d 8dbe
00000360: 1dd6 84bd ef90 653e 474a 92be b24d 44bf
00000370: 80a4 b9bb bb83 833d 69a6 d33e a56b 81be
00000380: 555e 93be 828e d6be 3cb9 16c0 1ad7 86bd
00000390: 90da 843d 2dec b93c 1633 013e f49b 743d
000003a0: 2a25 7e3c 273a 043e d1ef 293c 606e 393c
000003b0: 3315 cf3d afd5 29be f432 81bd b91c 653d
000003c0: 2580 8a3e 90ca d63e 0d75 8ebd 1a33 6ebc
000003d0: c2fd 8a3d eecd 053e e469 953d c5ab 18be
000003e0: c736 78bc 64e1 19bc c68c 43bc ce86 2f3e
000003f0: 7b44 4cbd 49b4 763d 7485 3b3d 49eb cd3c
-0.15957223 0.053853348 0.010618871 0.053116962 -0.008466815 0.078203246 -0.039830487 0.18704899
-0.40027145 0.059515018 -0.07251322 0.017877564 -0.29474202 -0.10966081 0.13743138 0.012916986
0.09330331 0.047067698 -0.573474 -0.56686336 -0.18071508 0.11220883 0.04908698 0.19893256
-0.29847077 0.12115947 0.24310035 -0.21934429 -0.66311306 -0.4023554 -0.1295783 -0.061646685
-0.22043295 0.356477 0.17566077 -0.19459727 -0.028318252 0.09513141 0.17933947 0.06091652
0.03617427 -0.18682012 0.36771372 -0.3136811 -0.34757364 -0.4110696 -1.0827801 0.066674024
0.10361669 0.0057814284 -0.035937726 0.18165512 0.21032406 -0.12597877 -0.020655334 0.24589008
0.3980066 -0.0554182 -0.07835536 -0.10326862 0.07241737 -0.12765245 -0.040063083 0.0648075
0.025361765 0.26980168 0.23299372 0.018843643 0.1289956 0.056772746 0.13156387 0.0927779
-0.029150462 -0.013056338 -0.032148775 0.0053116805 0.17608404 -0.15048565 0.055801556 0.047967218
-0.6501467 0.34965107 -0.45906386 -0.45942247 -0.1705524 -0.062219854 -0.21433173 0.23351641
0.2836808 -0.7790139 0.18930458 0.19024251 -0.17618892 -0.061269887 -0.69812983 0.12914628
0.099678285 -0.1194563 -0.18370456 0.010174568 0.027231645 0.16319121 -0.15860625 -0.009072485
-0.10681474 -0.074576 -0.059476025 -0.7327616 -0.1791414 0.17131257 0.031979315 0.13752997
0.15500952 0.0846505 0.10576284 -0.039582837 0.086535536 0.01508848 0.07105847 0.081133604
0.044057753 -0.006721571 0.082188 0.04713544 0.08137322 0.08122625 -0.016979886 0.0049249115
-0.0021396966 -0.014386735 -0.003158256 0.09918409 0.05858378 0.12441185 0.16786125 0.092315115
0.13049744 0.07362716 0.12012692 0.14215046 0.063105494 0.415296 -0.45305055 -0.65714276
-0.8015499 -2.8375692 -0.03311581 -0.004433939 -0.05517353 -0.049524296 -0.084139325 -0.04062382
0.029650068 0.53042465 -0.57561064 -0.8896657 -0.9920799 -2.429297 0.022022858 0.038760766
0.008669205 0.060481675 -0.054199364 -0.05509489 0.01935994 0.040395483 0.033947352 0.17002092
0.006789242 0.063532695 0.07501394 0.09488204 0.09210088 0.12124637 0.051103428 0.076463416
0.22036235 0.052092507 0.16226111 -0.08614289 0.17010823 0.25373667 0.20932277 0.001917911
0.021689316 0.17679101 -0.4369899 -0.10040118 -0.37329334 -0.1877197 -0.045892105 -0.41654313
0.14876194 -0.34546766 -1.3407763 -0.72476906 0.101452574 -0.06970931 -0.13686614 -0.49501148
0.028248645 -0.26932803 -0.1807098 -0.06591104 -0.3823848 -0.1767467 -0.17162657 0.094101325
0.46903014 -0.75086725 -0.29181075 -0.52767104 0.39918306 -0.5680451 -1.5222037 -0.2763461
-0.06486151 0.22418569 -0.28572294 -0.76681054 -0.005665362 0.0642161 0.41337898 -0.2527744
-0.28782907 -0.419056 -2.3550558 -0.06583996 0.06487 0.022695625 0.12617144 0.05971904
0.01551179 0.12912808 0.010372118 0.011317819 0.10111465 -0.1658542 -0.06308547 0.055935595
0.27050892 0.41951418 -0.069559194 -0.014538551 0.06786682 0.13066837 0.07295588 -0.14909275
-0.015149779 -0.009392116 -0.0119354185 0.17141268 -0.049869996 0.060230527 0.045781568 0.025136607

advantage.fc1.bias f4 [64]
00000000: cb0a a13d 763f 763c 1079 5bbe e21d 423d
00000010: 4c37 933e 6698 8ebd f868 32bd 2193 dbbc
00000020: 438c 8dbc af73 39be c4bb ab3c 54ca 173e
00000030: 2a20 d53d 1a57 213d 1297 b8bb b617 2dbd
00000040: 05e2 02bc 9eee 3c3d a2f7 36be 7ff9 64be
00000050: ff11 2abc 4e93 95bb c891 7a3c b89e 38bd
00000060: e9d8 41be d391 a83d ef7d 033c c985 63be
00000070: 8091 c93d d5a2 87bb 4a98 3ebd 8ab2 6cbe
00000080: 8ee9 4c3e cdc7 b4bd 6c2b 0fbe c94c 823d
00000090: 5262 08be 38f0 d7bc e062 48be b0df cebd
000000a0: c3b2 0abe 74c3 523d 0be0 c23c 6d04 e63d
000000b0: 7396 f3bd 15ef 3cbe dc23 17bd 76da 44be
000000c0: 8679 b2bd 1924 c73c 66c3 40be 6e9e 54be
000000d0: ceee 37be 451f aebd db68 86be c016 c0bd
000000e0: 1f13 65bd 9b91 15be 48c8 dfbd 33a3 14bd
000000f0: 74c9 543d 81e6 3b3d f891 ff3c e540 513c
0.07863387 0.015029779 -0.214329 0.04739178 0.28753126 -0.069626614 -0.043557137 -0.026803555
-0.017278796 -0.18110536 0.020963557 0.14823276 0.104065254 0.039389707 -0.0056332434 -0.04225894
-0.007988458 0.046126 -0.17867902 -0.223608 -0.010380267 -0.004564679 0.015293546 -0.04507324
-0.18930401 0.08230939 0.00802563 -0.22219004 0.09842205 -0.004139284 -0.046531953 -0.23114982
0.20010969 -0.088271715 -0.13981408 0.06362302 -0.13318756 -0.026359662 -0.19568968 -0.10101259
-0.13544755 0.05145593 0.023788473 0.11231313 -0.1189393 -0.18450578 -0.036899433 -0.19223961
-0.08714585 0.024309205 -0.18824539 -0.20763561 -0.1796219 -0.08502058 -0.26251873 -0.09379339
-0.05592644 -0.14606325 -0.109268725 -0.03628845 0.051949933 0.045874123 0.031197533 0.01277182

advantage.fc2.weight f4 [64, 64]
00000000: 51de 5cbe 7ea7 5c3d 690e 2c3e daa8 273c
00000010: 80e3 bd3e b367 213e 288f 3fbf 7d07 37bd
00000020: 982f 76bb 5015 2abd 2d11 30be f2cc 313d
00000030: f591 7e3c 8bc9 e83d ffe3 a9be e02f 90bd
00000040: 320b eebd 91ad 233e cb79 9fbc 5dc0 efbd
00000050: 4cb6 dc3d acec 04be db8a a3bc 5854 abbe
00000060: 4f6e 4fbe d2c8 c83c cc5d 8f3c 9300 04bd
00000070: cf84 a63d f8ad 963d 5edd 2bbe d99d ee3d
00000080: 999a 45bd c168 9e3c d4ba 423d bc43 3d3e
00000090: f7b5 3cbe e4d9 62bd 56da a83c 5e36 fcbd
000000a0: 0515 8ebe 4fa3 023e 015f 283e f411 d73d
000000b0: 621e 993e 2534 adbc 20bb 2dbe 79c3 27bd
000000c0: 7afa 07be 116b 91bd 74d5 89bd 5ab4 2ebc
000000d0: b17f 7dbd 7ded 183c dd2b 133d 0ac7 7ebd
000000e0: 7930 08bb a75d 90be 8cd3 d2bc 80d6 cf3a
000000f0: ea09 843d 4c25 993e c328 26bd 525f 8ebe
00000100: 7611 c7bd db69 8c3e 077d 0ebe a147 8e3d
00000110: fd93 93be bbeb f43d 6f38 30be d064 adbe
00000120: 614a 07be 80da b1be 000d 98be 4835 21be
00000130: 8610 91be c46f a0be 24ea a73d 3259 f33c
00000140: 7627 88be 6a29 53be 01f8 6fbe e1c5 47bd
00000150: 938d 3c3c 49b4 b8be 7d39 0bbf 8666 42bd
00000160: 562c 35be 37b2 e8bd 6691 453e 2b7d 28bd
00000170: b59a 243e aa6f b6be e2bf 283e 0bed dabe
00000180: 5fdb c53d 9e35 013e cb1f a4be 53dc 10be
00000190: 4389 143e c7ea 64be 1e16 2fbe 4be1 adbe
000001a0: 8967 3fbe 7f02 40be 8dc7 43bd 1e58 68be
000001b0: 5bde 973d 2386 bcbe f37f a5be 2623 93bc
000001c0: 2559 bcbe 9cd5 7abe fbbe d9bd 25e7 3dbb
000001d0: da63 18be 8bfc 863e b54b cbbe 69cb d8be
000001e0: f6b5 bcbd 1444 12be af96 e93d aa8a 613e
000001f0: 8efc c0be ce04 c53d ebf7 683a fe9b 15be
00000200: d721 dfbd 113a 34be 50ce d6bd 4c05 ae3e
00000210: 4135 47be 2e45 933e 4014 e4be c51b 81bd
00000220: 535b ca3a 330e 13be 4691 04be 87ad 4dbe
00000230: d4f5 b8bd 3685 1b3d fecc a33c 8f31 0cbd
00000240: aca7 16be f465 9cbc 7cbb 5bbb 9c3e e1bd
00000250: dd3d 7bbe 3822 48be 48a6 0bbe 0ef5 713e
00000260: 3915 27bc e7be ee3d 02ce b23e 568e 3ebe
00000270: a04e 13be 013f adbc 5269 10bd e493 9bbe
00000280: 8b36 ea3d 35ee 0a3e 642a e23d 2497 813e
00000290: e729 97be 7545 db3d 515a 883c 3de6 2fbd
000002a0: 1bf7 a43e 8dee dbbd a1fb 15bb 2328 bebe
000002b0: 137c bf3e 9288 e3be 113f b3bc 74d2 1dbe
000002c0: 9fc3 e33d 72fb babe c3bd 62bb 4361 bd3d
000002d0: c1f3 8fbd 5ec0 093f 6205 01be 1294 b5bd
000002e0: ff09 4b3e 3f85 26be ea0d 9e3e c9fe 66bc
000002f0: d3da 9e3e 230b ab3e dbce 003e 21b7 d7bd
00000300: 7cc0 123d 52a1 bb3d dee6 dd3e 8f39 44be
00000310: 1e91 80be 0ce7 1fbf 37ce c03e 9061 14bf
00000320: f29c 78be ea6b d2bc 63ce a83a 18a6 ec3c
00000330: bba6 443e a093 a9be a00e 723e 9e85 1ebe
00000340: 8345 44be 52f5 8e3e c429 c3bd 64e3 76be
00000350: bf09 46be 015e f4bb 6a7d a13e 7c3b bf3d
00000360: e11d 84be 3c93 c73d 5188 a5be e219 a2bd
00000370: c184 0e3e f91d 803e 56bf 8f3d 1a73 30bd
00000380: 3c40 da3e 7de6 ccbd 4148 073e c615 b6bd
00000390: 1a04 ebbc 4bdf 843e d934 c8bd 5f30 35bd
000003a0: c9e5 4f3c 621c 1e3e 4b95 66bd 51bc f7be
000003b0: 5b92 f0bd 65ee 1ebd a25b 9cbd 126b 8fbe
000003c0: 4667 3e3c 7352 ec3e 6501 56be 1dfc 05bd
000003d0: cd81 1cbe 85bb c2be 4ee2 34bd e42f c13d
000003e0: 6bd0 4abe 6560 f03d a5f3 9dbc f428 123c
000003f0: 75ce 39bf f2a4 cdbe e56d d3bd abd2 9a3e
-0.21569182 0.05387067 0.16802372 0.010233128 0.3708763 0.15762214 -0.74827814 -0.044684876
-0.003756499 -0.04152423 -0.17194052 0.04340834 0.015537729 0.11366566 -0.3318176 -0.070403814
-0.11623229 0.15984179 -0.019467255 -0.11706612 0.10776958 -0.12980908 -0.019963672 -0.33462787
-0.20256923 0.024509821 0.01750078 -0.03222711 0.081308 0.07357401 -0.16783664 0.11651201
-0.04824314 0.01933706 0.047541454 0.1848287 -0.18428789 -0.055383578 0.020611923 -0.12315057
-0.27750412 0.1275761 0.16442491 0.10501471 0.29905993 -0.021143029 -0.16965914 -0.0409579
-0.13279143 -0.071004994 -0.06730166 -0.010663116 -0.061889354 0.009333965 0.035930503 -0.062201537
-0.0020780845 -0.2819645 -0.025735639 0.0015856773 0.064472035 0.29911268 -0.040566217 -0.278071
-0.09720127 0.2742451 -0.13914882 0.06947256 -0.28823844 0.119590245 -0.17209028 -0.33865976
-0.13211967 -0.34737015 -0.29697418 -0.15742981 -0.2833292 -0.3133527 0.08198956 0.029705618
-0.26592606 -0.20621267 -0.2343445 -0.048772696 0.011508363 -0.36075047 -0.54384595 -0.047461055
-0.17692694 -0.11362117 0.19293746 -0.041134994 0.16074641 -0.35632068 0.16479447 -0.42758974
0.09660982 0.1261811 -0.32055506 -0.14146547 0.14505486 -0.22355185 -0.17098281 -0.33960947
-0.1869184 -0.18750952 -0.04779773 -0.22689864 0.07415458 -0.36821088 -0.3232418 -0.017961096
-0.36786762 -0.24495548 -0.1063213 -0.0028976884 -0.1488184 0.2636455 -0.39706197 -0.4234269
-0.09214394 -0.14283782 0.11405694 0.22025552 -0.37692684 0.09620057 0.00088870403 -0.14610288
-0.10895126 -0.17600276 -0.1048857 0.33988416 -0.19453909 0.28763717 -0.445467 -0.06304125
0.0015438594 -0.14360885 -0.12946042 -0.20085727 -0.09031263 0.037968837 0.019995209 -0.03422695
-0.14712399 -0.019091584 -0.0033528497 -0.1099827 -0.24535318 -0.19544303 -0.1363765 0.23628637
-0.010197931 0.116575055 0.34922796 -0.18608984 -0.14385462 -0.021148207 -0.03525669 -0.3038627
0.114361845 0.13567431 0.110432416 0.25310624 -0.29524156 0.10706607 0.016644629 -0.04294418
0.32219777 -0.10738859 -0.0022885578 -0.37139997 0.3739935 -0.44440132 -0.021880658 -0.15412313
0.11121296 -0.36519963 -0.003459797 0.09247067 -0.07028914 0.53809154 -0.1259971 -0.08866133
0.19828032 -0.16261767 0.3086999 -0.014098831 0.31026325 0.33406934 0.12578909 -0.10532976
0.0358281 0.09161629 0.433402 -0.19162582 -0.25110716 -0.62461925 0.3765733 -0.5796137
-0.2427862 -0.025686223 0.0012878891 0.028887793 0.19204228 -0.3312044 0.23638391 -0.15480658
-0.19167142 0.2792154 -0.095294505 -0.2411018 -0.19339655 -0.007457495 0.31540996 0.093375176
-0.25804046 0.097448796 -0.32330564 -0.07915093 0.13917829 0.25022867 0.07018916 -0.04307852
0.42627132 -0.100049 0.13211156 -0.08890872 -0.02868848 0.2595161 -0.09775705 -0.044235583
0.012689062 0.15440515 -0.05629472 -0.48385862 -0.11746665 -0.03880157 -0.07634665 -0.28011376
0.011621302 0.46156654 -0.2089897 -0.032711137 -0.1528389 -0.3803369 -0.044161133 0.094329625
-0.19806068 0.11737136 -0.019281218 0.008920897 -0.72580653 -0.40164906 -0.10323695 0.30238852

advantage.fc2.bias f4 [64]
00000000: a31f 393e 8549 3ebe 712a 2dbe a587 9c3d
00000010: 21e7 01be b37b 363d 03a8 00be acfd 8cbd
00000020: e68d 34bc 3240 a33e 1aec f63e 750e 6e3d
00000030: fd86 37be 44cd af3d b6a8 843c 02fa 533e
00000040: 236a 6a3d da15 1238 d5ae 0a3c 5785 a13c
00000050: a5d2 b3bd 6aee 493e 27a6 563d 2879 b33d
00000060: 9409 34be d72a ac3d 037f c43e 6245 033d
00000070: e388 18be b755 d4bd e131 d53d fe80 28be
00000080: de22 c0bd 9417 51bd 6cc8 9fbc 07a3 a9bd
00000090: 6bff babd fe71 363e 0512 efbd b9be 8bbe
000000a0: 675b 15be 9054 063f a8a8 07be 961d abbd
000000b0: a6f9 f7bd 1ef1 07be 2b04 66be 273a 56be
000000c0: b351 a63e 203f 8fbd cc80 92bd 8bbb 973d
000000d0: 1979 dcbd e92a 3c3d dc7b f03b a31d 9bbd
000000e0: 0cdf ff3c 3df2 3ebe b012 d8bc 3686 15be
000000f0: 8399 793d 1897 113b aa5e 6c3d 3975 94be
0.18078475 -0.18582733 -0.16910721 0.0764306 -0.12685825 0.044551563 -0.12564091 -0.068843216
-0.011020159 0.31884915 0.48227006 0.058119256 -0.17922588 0.08584073 0.016193729 0.20700839
0.057230126 3.4829463e-05 0.008464535 0.019716902 -0.08780412 0.19719854 0.05240455 0.08763343
-0.17581779 0.084066086 0.38378152 0.03204859 -0.14895968 -0.10367911 0.10409904 -0.16455457
-0.093816504 -0.051047876 -0.019504748 -0.08283048 -0.09130748 0.17816922 -0.11673359 -0.27293947
-0.14585648 0.5247278 -0.13247931 -0.083552524 -0.121081635 -0.13275573 -0.22462527 -0.20920621
0.32484207 -0.06994462 -0.07153472 0.07408818 -0.10765285 0.04593936 0.007338984 -0.07574012
0.031234287 -0.18647094 -0.026376098 -0.14601979 0.060937416 0.0022215303 0.057707466 -0.28995684

advantage.fc3.weight f4 [4, 64]
00000000: 67c3 8bbd a2a0 b43e 247d c1bd 8095 86be
00000010: 2a6c babc ea0d 713e 2325 8c3d dbb0 dbbe
00000020: 36b0 ee3c e8ef cebd ccef e3bd 342d b8bd
00000030: 24de ef3e 632b df3c 39b4 1a3c e414 eebc
00000040: 405b f5bd 3827 9cbe f1ee 3abe e36b 77bc
00000050: 0040 fd3d 76e6 073d 8103 3e3e 9735 56be
00000060: 8387 a2be b755 8fbe 2133 c0bd 54f3 0cbe
00000070: 2d0d c43e d630 bc3d b2e2 04bf b2f4 e73d
00000080: a931 bc3e 2614 403f 6589 c83e fc3e a33d
00000090: 8cbf 043f 2e17 46bd 17b6 283e 1698 563f
000000a0: 1b89 febe d0f8 afbc 54bc 95be d98b 90be
000000b0: 2124 54bd 1459 0f3e 478f acbe 4556 ad3e
000000c0: 0833 4ebe 2ae2 f7bc afbf 00bf 6c56 e9bd
000000d0: 5a2d b43e 12c4 abbe 1352 b8bc d299 a0bd
000000e0: 726a 3abe 498f 17bd c835 1a3f 270b e13e
000000f0: 42a8 bebe 86ae a2bd ca95 993e 1940 bd3e
00000100: 1c39 2b3e d336 51be 0abe b33d 712d 613e
00000110: 4136 41ba a20e b63d 3d0e ccbd 089e 493e
00000120: 51db 31be f259 ba3c f8d4 263e 1ecf 67bc
00000130: dd5a c0be 7457 5e3d 02a6 6fbd b90a 0d3e
00000140: 56c4 18be 489e ea3e 6c2f 85bd f57b 86bc
00000150: 24c0 383e 9c4c 5d3e 7c1e 89bd 6f8d 423e
00000160: 534f fe3d 444c 50bc 9749 e73d cd0f 713d
00000170: 8756 233e 70c8 dcbd 1e3a 0e3f f693 2a3e
00000180: df33 c93d d6ab 8abf 5eae b63d 3e31 cbbe
00000190: 227f 78be 0d7e 2b3e 314d 52be 9364 b1be
000001a0: 49a2 553f 2f0e 023e 1fd9 4ebe 72ed 933e
000001b0: 366f a9be d41c 51be d02c 1a3f 2f69 0abf
000001c0: a194 3dbd 4cfa 803e 8556 8a3e 66df ddbc
000001d0: 6fd6 953e 9d39 3d3e 2ea1 3e3e b49a e3bd
000001e0: dc1b 15be 0092 e0bc 408a f9be 3ef6 93be
000001f0: b4d8 183e 9e23 bdbe 3181 21bf 189e 71be
00000200: 9e34 a8bd a6dd 7d3e 4e33 a53e b64f 2e3e
00000210: 9aed 733e a91a 98be c084 a53e 973d fa3d
00000220: c1af 57bb 8022 42be 2ab2 4abe 25f8 1c3f
00000230: cbab 5b3c 3bc4 51be 0624 75be 7ded 2b3e
00000240: 9815 603d 8b4b c6be 9264 5e3d 8388 bfbe
00000250: a5e3 c23e 17f4 f5bd c1cf 45be 0778 f83c
00000260: da0d 973e ce6e 193c a4f5 b6bd 9d99 08bc
00000270: 4168 d33e 8522 043f f702 7ebe 64dd 5ebf
00000280: 4585 6fbe eb6e 453e c561 753e f79a 2b3d
00000290: 2225 0cbf 54d6 79be 09da c53d f3e9 a8be
000002a0: 8a97 353e 047b edbd 99e4 ff3e de7f 813e
000002b0: 92c7 f53d 511a 0fbf 1015 3a3e ce4e 9d3d
000002c0: 5e3e e43c fc1c bebd 04e3 0fbd 4784 aebd
000002d0: 6562 f7be c62b cf3d c0f8 56be fe2a c73d
000002e0: 9d27 8abd 704b 90bd e131 15bf 5021 3dbe
000002f0: a313 77be 00b9 b43c 09e9 91be 4741 3e3d
00000300: 71f7 d83c 1632 90be 1ea9 0dbe 9be4 a8be
00000310: c94d 65bd 1711 14be 07b0 c1bd 3448 bb3d
00000320: 4419 7b3e 8297 c83e 2618 6d3e 3af7 96be
00000330: 7682 f6bd 5dff 003e 4dc6 553e 012e 81be
00000340: 78bd 973e ffe8 263e dec2 e03d 12f7 f63e
00000350: 902d d2be 4cc2 023e 4e82 cf3d d5b9 a73d
00000360: 3014 86be c242 62bd 6d20 803c c9d6 cebd
00000370: 158f 73bf d973 babe a92d 5a3e 7252 3a3f
00000380: 0061 a9be 48b9 5f3d 9ae6 07bf 523c 913e
00000390: 3adf ac3d eb8b 73be 29ed 963e 45b0 5dbe
000003a0: 4c85 83be 0e29 9a3e e757 0d3e 5100 d1be
000003b0: 394e 823e d957 e23e 9345 1ebe 2b27 4b3e
000003c0: 1c5c 853e 29ab 8dbe c4b0 9d3e be71 bc3e
000003d0: 0fec 8abe a016 58bd bd0e 753e a287 9c3e
000003e0: 94c3 223e e87e 4cbd 6017 463e 39a1 c3be
000003f0: 438c 3d3e 2ee1 ca3e 7103 47bd 22dc 35be
-0.068243794 0.35278803 -0.09447697 -0.26285934 -0.022756655 0.23540464 0.06843021 -0.42908368
0.029136758 -0.10104352 -0.11129722 -0.08992997 0.46849167 0.027242368 0.0094423825 -0.029062696
-0.11980295 -0.30498672 -0.18255211 -0.015101406 0.12365723 0.03317877 0.18556024 -0.2091888
-0.31744012 -0.27995083 -0.09384752 -0.13764697 0.38291302 0.09189002 -0.5190841 0.11325969
0.36756638 0.75030744 0.39167324 0.07970998 0.5185478 -0.04836195 0.16475712 0.83825815
-0.49713978 -0.021480948 -0.29245245 -0.28231695 -0.051792268 0.13998824 -0.33703062 0.3385488
-0.20136654 -0.03025921 -0.50292486 -0.11393437 0.3519085 -0.33548027 -0.022500074 -0.07841839
-0.18204668 -0.03700188 0.60238314 0.4395382 -0.37237746 -0.07943444 0.29997092 0.36962965
0.16721004 -0.2043107 0.087764814 0.21989991 -0.000737045 0.0888951 -0.09963653 0.1968919
-0.17368819 0.022747967 0.16292179 -0.014148502 -0.37569323 0.05428262 -0.058507927 0.13773622
-0.14918646 0.45823884 -0.06503186 -0.01641653 0.18042046 0.21611255 -0.066952676 0.18999265
0.12417474 -0.012713496 0.11293333 0.05885296 0.15950976 -0.10780418 0.5555743 0.16658005
0.09824347 -1.083369 0.08919977 -0.39686006 -0.24267247 0.16747303 -0.20537259 -0.34647045
0.8345075 0.12700723 -0.20200013 0.28892094 -0.3309266 -0.20421153 0.6022463 -0.5406675
-0.04628432 0.2519096 0.27019134 -0.027084064 0.29265162 0.18479009 0.18616173 -0.11113492
-0.14561409 -0.027413368 -0.4873829 -0.28898805 0.14926416 -0.36941236 -0.63087755 -0.23595464
-0.08213161 0.24791583 0.32265705 0.17022595 0.23821107 -0.2970784 0.32327843 0.122187786
-0.0032911154 -0.18958473 -0.19794527 0.6131614 0.013407658 -0.20485012 -0.23939523 0.16789813
0.054708093 -0.3872951 0.05429513 -0.37408838 0.38064304 -0.12009447 -0.19317533 0.030330671
0.29502755 0.009364797 -0.08933571 -0.0083374055 0.41290477 0.5161517 -0.24805818 -0.87056565
-0.23390682 0.19280593 0.23963077 0.041895833 -0.5474416 -0.24398166 0.096607275 -0.3299099
0.17733589 -0.11595729 0.49979094 0.25292867 0.12000956 -0.5589953 0.18172097 0.076810464
0.02786177 -0.09282872 -0.03512861 -0.08521324 -0.48317257 0.10115771 -0.20993328 0.09724997
-0.06745837 -0.070456386 -0.58279234 -0.18469739 -0.24128585 0.022060871 -0.28498104 0.046448972
0.026485177 -0.28163213 -0.13834044 -0.32986912 -0.055982385 -0.14459644 -0.09457403 0.09144631
0.24521357 0.3917809 0.23153743 -0.29485494 -0.12036602 0.12597413 0.20876427 -0.2523041
0.2963674 0.16299818 0.10974668 0.48235375 -0.41050386 0.12769431 0.101322755 0.081897415
-0.26187277 -0.055239446 0.015640462 -0.10099561 -0.951402 -0.3641651 0.2130648 0.7278205
-0.33081818 0.054620057 -0.53086245 0.28366333 0.084410146 -0.23783843 0.29477814 -0.21649273
-0.25687635 0.30109447 0.13803063 -0.40820554 0.25450304 0.44207647 -0.15456228 0.1983916
0.26046836 -0.27669647 0.30798924 0.36805528 -0.27133223 -0.052755952 0.23931403 0.3057223
0.1589492 -0.049925715 0.19344854 -0.3820894 0.18510537 0.39624923 -0.048587266 -0.17759755

advantage.fc3.bias f4 [4]
00000000: 2a2d f0be f7f4 0a3f bebf 14bf 82bf ed3e
-0.46909457 0.54280037 -0.58105075 0.4643517

aggregate.weight f4 [4, 5]
00000000: 67d0 d7be 0f94 9bbe a90e 823e 05fd 2abf
00000010: 0869 4fbc 36f8 dbbe eefa 03bf 5ea1 0a3e
00000020: 33e4 8ebe c108 663e b7a7 febe b47a 193e
00000030: 6844 debb f3a8 80be 394e 363f fa98 39be
00000040: 368c 19bf 4280 023f a03c 68be 164e 993e
-0.42151186 -0.30386397 0.2540181 -0.6679233 -0.012659319 -0.42962807 -0.51554763 0.13538119
-0.27908477 0.22464277 -0.4973733 0.14988214 -0.006783057 -0.25128898 0.7121311 -0.18124762
-0.5997957 0.50976956 -0.22679377 0.29942387

aggregate.bias f4 [4]
00000000: 8eb8 0e3f 691a f73e 69c4 243f daea aa3e
0.5575036 0.48262337 0.643622 0.33382303
